models/cartpole_model.npz (npz, 8786 bytes, 6 tensors)

arr_0 f8 [10, 32]
1.2858230227164777 0.3140436868884734 0.6281487516560224 1.1632843133393067 1.7773090657133666 -1.07465767759294 -0.2737087160894242 -0.4118844190016458
1.0013967344770918 -0.19050799067470092 0.2373571178878904 1.274657781582917 -0.6254336963535173 2.279942151661534 0.9869383417784554 1.7416677558050273
0.35839224275565645 -0.6989026143264898 -1.1163876576189629 -1.2896458357040177 0.1889974738413078 0.21608394588969274 0.5457903404086001 -0.403998518988782
0.8815635168356764 1.077231740737492 1.9943883342020592 0.4550440388925164 0.023722562637962945 0.809411417775793 -0.09491262286839433 0.756882701577956
0.5865799309194281 0.16573526971782743 -1.5286102133358863 0.8932769246854394 -0.14119979610632363 1.9119807091982033 0.6733590355530908 -0.5799808144794797
1.6286048534879247 -2.0469217963745496 0.49931055207992564 0.6973523237618695 0.3878603956203902 0.2798483090255789 -1.2531873664177813 -0.7036277465900472
1.4684630395504141 -0.4291082448362575 -1.2037610469105864 -1.538303557004736 -0.5276664125382623 -0.23442302050645444 -0.3770262571991452 0.1755225268646839
-1.3228411056578007 -1.2434857033356819 -0.6863294912793679 -0.7257520885651677 0.42191474724898675 -0.2616156527520149 -1.379287612767929 -0.5751357656266879
0.48022751765175015 -0.7714925325945818 -0.5135155626850255 -0.9364345517215318 -1.0770954227456055 -0.2709615537820734 -0.23986508590402802 0.7837303090437895
0.242991201759176 0.8959200363734642 1.8449050614688862 -1.4273167381250444 0.5270048813413943 -0.7390374707425983 0.19197131725267552 -0.5601099835321872
0.3393890220845693 -0.5536902399086501 1.8042969418347499 -0.715970033827306 0.7165815837062065 0.5598982832069321 1.3175966576916807 -0.70432720209868
-0.13745438088950693 0.8352848497577939 0.7922407952418314 0.35822224497045824 -0.09091368675635315 -1.1403312804124557 -0.42853581237805805 1.512151837931264
0.6503159871821707 0.41912268325651975 0.44610597309929234 0.3668901819234967 0.47877641415495903 -0.9507279784340243 -0.8187954542098554 0.12345493313475485
-0.487969308086171 1.8942097769936208 0.7007604849694228 -0.41007619766298015 -0.43101302910848716 0.22127665567224017 0.5607914765609133 0.0004263219679638109
-0.9145336643021147 0.32945081769646184 -0.16127987515674447 0.8161401069097541 -0.881191994527475 -0.3336058009149661 1.7669002204380344 -0.9088489950001251
0.20525906014203768 -1.0016916315216284 -1.4515614818924991 1.6769046378525905 0.944979673795531 -0.7041871614986686 -0.008090630241423886 0.552790751371607
-0.44155049595807 1.821694623996965 -0.31798294996348586 -0.3440873530623198 -0.08260593760135775 -0.7778159288832988 -0.4576254044876891 1.493971252522178
-0.3243236526192773 -1.338316438438684 1.423100338288099 -0.2909637359866571 -1.7701159410939404 -0.71976165843358 -0.07960192984385255 -0.5131480886995246
-0.05471184611883081 -0.1609979663314232 0.0012381735476106306 -0.5584639551222719 0.6758207267774773 -0.18566904656360944 -1.2649041236666103 0.8912144900351011
0.05689534371632764 -1.5671975859861698 0.16851365346937897 0.7228455626414301 0.22854369618067896 1.4256456344112014 0.07454411986285318 -0.3547664719158772
0.10940625305507491 -1.047161002745756 -0.22530904281037337 -0.1384424519581955 0.4757409280583955 0.7644976711338239 0.06643407702383461 0.8265184046162262
-1.1321526343352835 -0.7382998835009811 -0.10250911385242044 -1.0307948228315986 -0.25361150297912616 1.1336781374278644 -0.5923238314812099 0.1409598954078222
-1.5926102392162376 0.42723574236135736 0.3007029386280026 0.05132204111807913 -1.3242048547779823 -2.584767021061366 -0.3299318162930262 -0.1130580108585527
0.17995343267149527 -1.6126634564332465 2.0596819171049026 -0.8792983391892497 -0.9328142644932681 0.6395484414118778 1.2765505286250198 0.5473689622306939
0.9459903548243973 -1.07452386604825 -0.16577267909298407 -2.4494394930900167 -0.814182574967846 -0.5051255721054346 -1.4976204141128813 -0.8934710386810848
-1.4900034395857742 1.811082190625958 -0.8833778587198379 0.9124772139100987 0.022961331740223394 -0.07701874691733698 1.0025123249964791 -0.19547233647182757
0.517013178706256 0.45202957251260295 -0.5486248331296566 -1.045986161326153 -2.2483712492736987 0.42911309338197906 0.3388855871457359 -0.2479820749430737
1.239602800367661 1.329324908525583 0.40415763428637336 0.1864836526678098 -0.6789318891894767 2.466606488492409 -0.052038920643226204 -0.9119118868164819
-0.6505786369831053 -0.6569511476781593 0.1831914733002743 1.0205797923248627 -0.1114592869780599 0.31903700982743877 0.5365678137750821 -0.6954449437855813
0.5319202943925764 -0.7872934811565457 -0.2506754523483628 0.4874252918608221 -0.7991745680677809 0.8984217228399891 0.3071462489261532 0.1546363267077694
0.17647801975054536 0.2756767936797365 0.08961588445179491 0.948547390487855 -1.3624240576808928 -0.14505288145346634 -0.19753439361575192 -0.28314798112578976
0.6232965246449544 1.044062504906659 1.6450249502752023 -0.8386368900697088 1.003075932463561 0.2912134795990041 1.98552764615069 -1.7469523454811493
00000000: 9e2d 7029 bb92 f43f 66e1 2cb1 4a19 d43f
00000010: d158 2c69 cb19 e43f cddf 1b03 d09c f23f
00000020: baf8 81a1 db6f fc3f 0783 ba3f cc31 f1bf
00000030: 8ffd 0e90 7184 d1bf 9504 5677 505c dabf
00000040: a667 0e95 b805 f03f a889 c9da 9062 c8bf
00000050: 3191 66d1 b761 ce3f 40d9 d78e ff64 f43f
00000060: b9f3 f486 8d03 e4bf ea43 914f 523d 0240
00000070: 066c a3b7 ff94 ef3f 89e2 3a02 dfdd fb3f
00000080: 0ba4 7104 e6ef d63f aae0 f303 695d e6bf
00000090: 961a f24d b9dc f1bf 6e57 fcab 63a2 f4bf
000000a0: 7767 96b8 1131 c83f f5b7 6484 a3a8 cb3f
000000b0: 77e2 d04d 1d77 e13f bb1c ac9a 1cdb d9bf
000000c0: c0fd 44b1 c435 ec3f 10e4 8a59 573c f13f
000000d0: 8abf eebd 03e9 ff3f 791e 5208 711f dd3f
000000e0: cb56 d43a ba4a 983f 8c64 0bc6 b2e6 e93f
000000f0: 9284 3293 314c b8bf 32ef 4512 6238 e83f
00000100: 873e 7946 43c5 e23f e2ab 9d35 d036 c53f
00000110: 58bf a9fb 2f75 f8bf 0f74 397d b995 ec3f
00000120: 6940 3dbd d512 c2bf 3d6d 8915 7997 fe3f
00000130: 0155 853f 288c e53f dbe5 cfec 338f e2bf
00000140: 6f66 7df6 c30e fa3f a42f e788 1860 00c0
00000150: 77c8 ee3e b4f4 df3f 4219 0bd2 b550 e63f
00000160: ca9a a668 b4d2 d83f d2c4 c6e1 08e9 d13f
00000170: 5565 2832 0e0d f4bf 9d32 0556 1e84 e6bf
00000180: 7f0f a419 d37e f73f 0301 816d 8276 dbbf
00000190: 03e0 8af1 9a42 f3bf 367e ca30 e49c f8bf
000001a0: 5995 21ac a4e2 e0bf f39b 40d3 9201 cebf
000001b0: ccd4 19bd 3221 d8bf 322c 4cac 8577 c63f
000001c0: feac 696f 5b2a f5bf ccec cd43 51e5 f3bf
000001d0: 0f68 ea43 69f6 e5bf d183 ac71 5c39 e7bf
000001e0: b79b 48b6 a600 db3f 1e43 2c94 4fbe d0bf
000001f0: d2db 49e3 8f11 f6bf a90c 041f 8367 e2bf
00000200: a106 bd32 0cbc de3f 1e43 931b 11b0 e8bf
00000210: df03 7730 b86e e0bf f8a0 cf97 45f7 edbf
00000220: 98d1 f568 c83b f1bf 12e9 fd20 6f57 d1bf
00000230: e57b b42d e6b3 cebf fc43 c795 5114 e93f
00000240: 30bd 62f0 551a cf3f ddc3 017f 60ab ec3f
00000250: 62bd 732b bb84 fd3f c67c 7413 4ad6 f6bf
00000260: 6032 4657 39dd e03f df74 ebe8 31a6 e7bf
00000270: 6665 af20 8492 c83f 0ae2 adc5 6bec e1bf
00000280: 9d60 9ebb 8cb8 d53f 9ab4 1098 d4b7 e1bf
00000290: c13f 5778 66de fc3f 9189 06fd 39e9 e6bf
000002a0: afe3 5d80 3cee e63f f0ba eecd afea e13f
000002b0: c0ac a13b e014 f53f ef4d 5633 d989 e6bf
000002c0: cd61 4eeb 1a98 c1bf 5bba 114b a7ba ea3f
000002d0: c3dc 435e 095a e93f a942 b6fe 1ced d63f
000002e0: 6198 608f 1e46 b7bf 08a3 3f03 cc3e f2bf
000002f0: fc06 d578 216d dbbf 6304 2820 c631 f83f
00000300: 986d 2079 63cf e43f 234e 66f2 e7d2 da3f
00000310: f6bf 4011 008d dc3f 256f 25f5 207b d73f
00000320: 9f11 39d4 45a4 de3f c285 d814 5d6c eebf
00000330: c23b 3e86 9233 eabf b7f8 5714 be9a bf3f
00000340: 7aa3 eb9e e33a dfbf 8537 3fe9 ae4e fe3f
00000350: 89ba a840 a16c e63f 6d27 753c b03e dabf
00000360: 2eef 0aac b795 dbbf d381 bd1f cb52 cc3f
00000370: af8c 76f7 00f2 e13f ceda f3e8 7ef0 3b3f
00000380: 9498 681a dc43 edbf 8b64 e9e1 b815 d53f
00000390: 148d a6a6 d1a4 c4bf eb33 84db d11d ea3f
000003a0: b1c2 bf8d b932 ecbf f5e1 2b25 cc59 d5bf
000003b0: 8b39 612a 3945 fc3f 6ae5 d07c 4a15 edbf
000003c0: 9945 42cb ed45 ca3f 16ff e0cd ed06 f0bf
000003d0: 08c9 4d88 9839 f7bf cf66 21f5 99d4 fa3f
000003e0: 0dc5 4a03 463d ee3f 96cb 9c83 b388 e6bf
000003f0: 8ada 5302 d291 80bf a483 d53a 76b0 e13f
00000400: 170a eb02 5d42 dcbf 0fdb 1543 a925 fd3f
00000410: 78d7 b128 d559 d4bf efab 17f6 8605 d6bf
00000420: 1308 74a8 a925 b5bf 7992 1b3b dee3 e8bf
00000430: 35fa 8510 bc49 ddbf 5af3 6b66 4ee7 f73f
00000440: 7e6b 54fe b7c1 d4bf 8bb1 6c7f be69 f5bf
00000450: 95fb 3ddc 04c5 f63f 719e 985c 269f d2bf
00000460: 1d07 d217 6552 fcbf e261 fc99 4908 e7bf
00000470: abb9 60c5 ca60 b4bf 0a05 5f8a b56b e0bf
00000480: cb7d 91eb 3003 acbf 29d8 0ed4 949b c4bf
00000490: f75c 33b9 4649 543f cad6 e7cc efde e1bf
000004a0: a1fb eec9 52a0 e53f d662 6fd9 00c4 c7bf
000004b0: fe93 3b1b 0c3d f4bf a881 0d40 d484 ec3f
000004c0: 2ed4 1cf1 6221 ad3f 57e4 a2c6 3d13 f9bf
000004d0: 804c 4afb da91 c53f 3251 7304 8d21 e73f
000004e0: edc7 667a eb40 cd3f 55b3 f7cb 71cf f63f
000004f0: f388 ebcc 5215 b33f c824 a66e 7eb4 d6bf
00000500: 5975 d956 0c02 bc3f 8e08 47e5 2bc1 f0bf
00000510: 058b 2e3d edd6 ccbf 98ed c475 7bb8 c1bf
00000520: b049 d813 8a72 de3f fb69 ecd1 c376 e83f
00000530: c645 28dc d201 b13f 1acd abb9 d672 ea3f
00000540: fccd a814 4c1d f2bf d6df c813 27a0 e7bf
00000550: 07c0 898b 093e babf 502a 4fb6 227e f0bf
00000560: 00d3 cbbd 2b3b d0bf 0016 c7af 8b23 f23f
00000570: 834d 9b1b 51f4 e2bf a17e 694e f90a c23f
00000580: ec55 cbdf 547b f9bf b9f4 4795 d457 db3f
00000590: b7f9 cd89 b73e d33f 4e0d 55f0 e146 aa3f
000005a0: 239d 076e f12f f5bf 3de7 f954 9aad 04c0
000005b0: ffdb 3856 9a1d d5bf 3734 30ab 5ef1 bcbf
000005c0: de41 10ce b608 c73f a15c 4d32 78cd f9bf
000005d0: 6e06 5183 3a7a 0040 92d6 4745 3623 ecbf
000005e0: 4bb5 e74c 9dd9 edbf 154c 024b 2e77 e43f
000005f0: f12c 423f c06c f43f 900a f4e9 0b84 e13f
00000600: ceab 8990 8d45 ee3f f32d f7ef 3f31 f1bf
00000610: 5f28 a305 0a38 c5bf ccd1 a2bb 7398 03c0
00000620: 0cb8 8e9d c80d eabf c01d 921a fd29 e0bf
00000630: 24fd c6d2 40f6 f7bf 7fde 6193 5097 ecbf
00000640: b22c bfd8 0dd7 f7bf 56b4 b151 31fa fc3f
00000650: 71ca a6a4 a144 ecbf aad9 026a 0333 ed3f
00000660: 1b64 96e3 2c83 973f 5659 3027 80b7 b3bf
00000670: 1926 1b5d 4a0a f03f 97a8 35ce 3c05 c9bf
00000680: b49e c438 5f8b e03f 2d0e b171 0dee dc3f
00000690: 3417 82aa 558e e1bf 366e 2ffc 5bbc f0bf
000006a0: 772d c710 aafc 01c0 871a 97c3 9676 db3f
000006b0: c01b 782c 4db0 d53f e9f6 ef6a e0bd cfbf
000006c0: f5be f9be 69d5 f33f 5602 fe31 ea44 f53f
000006d0: b113 6cfb b7dd d93f ea32 b942 b2de c73f
000006e0: 34f8 885e cfb9 e5bf 0e69 c12e 9cbb 0340
000006f0: 8b47 906c d8a4 aabf f4bb 56d6 612e edbf
00000700: bc32 2a4a 8ad1 e4bf 941d cb69 be05 e5bf
00000710: bc88 5d75 d172 c73f 6ee6 ef79 4b54 f03f
00000720: bcff 6788 9888 bcbf ea09 db34 1a6b d43f
00000730: 9b01 8843 902b e13f bf48 37c1 1541 e6bf
00000740: 77d5 8fb5 7d05 e13f c07b 3d19 8231 e9bf
00000750: 25c2 6f0d 110b d0bf 6745 f2d9 f931 df3f
00000760: 66ac 348b d692 e9bf aca3 b3e9 debf ec3f
00000770: 9585 8ebd 48a8 d33f 64e1 fd86 1fcb c33f
00000780: b94d a5ed d496 c63f 0ab8 4747 b0a4 d13f
00000790: d02d ec0c 11f1 b63f 503f 9b0e 805a ee3f
000007a0: 6c5e 302b 7dcc f5bf fe3f 04c3 1791 c2bf
000007b0: aa19 3598 ce48 c9bf bc46 b7b5 181f d2bf
000007c0: ecef a18d 0bf2 e33f f0dc 98e2 7ab4 f03f
000007d0: 8a93 a8ae 0552 fa3f 8831 0208 1dd6 eabf
000007e0: 065f 5559 990c f03f b20d c2dc 3da3 d23f
000007f0: 5256 18a3 b8c4 ff3f 4631 784d 84f3 fbbf

arr_1 f8 [32]
0.8531815711930877 -0.23925453017516654 1.1655361015235581 0.8386285313288125 -0.9300121214654608 -1.590931344173488 0.008020803501916815 -1.113974474686529
-1.3808919811153568 1.2554710446188924 -0.5422013786620112 0.9984900283061836 -0.14447218146113824 -1.3332903518911972 1.5921728585316013 -0.684631824631898
0.2602446417355502 -1.0245285759842293 -0.5373885191973614 -0.014720379719441647 0.6081181594385988 0.26389075039527427 1.2160183675454772 -1.6913120705168843
0.6012529500205986 0.5131792152900301 1.16387666258766 -0.3817123473328526 0.5028487453662288 0.4286189021820078 -1.0662577734185597 0.07200289192561136
00000000: e85f 3a70 434d eb3f f9d6 4277 e49f cebf
00000010: c59d e52e 09a6 f23f a597 7180 0bd6 ea3f
00000020: cb7c d2c7 a8c2 edbf d380 d66c 7474 f9bf
00000030: 45b6 d305 366d 803f 00b8 15e6 d6d2 f1bf
00000040: 8b2f a330 2218 f6bf db68 5bce 6816 f43f
00000050: e661 a6b4 b659 e1bf 29a1 1e5c a1f3 ef3f
00000060: c757 477f 107e c2bf d11e 9743 2855 f5bf
00000070: 918d 4f3f 8a79 f93f ad08 1300 81e8 e5bf
00000080: c0a8 4d24 d9a7 d03f 28b7 7a13 7864 f0bf
00000090: 675a 6668 4932 e1bf ce6e d6eb b725 8ebf
000000a0: 538f dc36 b475 e33f d788 aa07 96e3 d03f
000000b0: 1217 ffac cf74 f33f 7633 e33e 9d0f fbbf
000000c0: a7c8 9ed3 763d e33f 3e0b 55d1 f66b e03f
000000d0: 1a44 a622 3d9f f23f 2189 11a0 f96d d8bf
000000e0: bbd7 8540 5617 e03f e66c d4f9 7d6e db3f
000000f0: 1004 9f4f 640f f1bf 57b5 0912 c86e b23f

arr_2 f8 [32, 16]
1.2486748319817986 0.8311328871145472 -2.1219341202509665 1.057332777366757 1.236369964694764 1.2557437606081363 1.3223401568846211 0.6449464871888262
2.0502096600927464 -2.7852481541711844 -0.44908370106568546 -1.3016737187397074 -0.3156994269418497 1.4954668710958166 0.496407232224195 -0.651954084186793
0.7164942034993959 0.9576214361265233 0.37497774603518186 -0.2412990849746134 -0.2775467424885599 -1.0303241501540341 0.8929695161527075 -2.2553430971649395
0.37658705697737227 -1.4720373874128148 0.42176992048711676 0.7858798283636146 -0.010191854402286721 -0.14735216279001873 -0.2218998136178499 -2.343817786991035
0.05525552655721366 1.6006559842256336 1.0625064810032065 -0.7074328047234516 -0.23004006780629147 -1.7462723969526293 0.8264485183155008 -0.5909379494772248
-0.21627846824211205 -0.6076246590024886 1.3797941950446493 0.17757440213475587 0.6236587210469328 -0.15092926260692888 1.1537842940680425 -2.1340527716138875
-1.255256782483205 -1.1837389318615443 -0.4839897744854992 0.061162408483049144 0.3762035826799857 1.1139416256578283 -1.6058574835575916 0.5113741767436131
-0.9288057836613399 1.6136400582719095 -0.8060695855851606 -0.03975659500086067 -1.6507271186874977 -0.38246250998794634 0.9804044290242695 -0.15410516941142785
0.4667049198161476 -0.9043672266413245 -0.661224580593128 1.5973650209233579 -0.4894921238056336 0.28959281156970784 0.12916371797780093 0.058572405073913376
-0.24282969504827737 0.11084274269189633 -0.9463776380539852 -0.576299636688653 0.20582412846734296 0.35954638583298193 -0.4231933816003563 0.46522958257851804
-0.49381791431139 0.856665528584998 0.10750832609745646 -0.7764427638498439 -0.3266407780717761 1.0934438908247182 -0.7007300116940952 -0.21976562586582338
1.5094138760758018 1.609757133401542 -1.0383094693350647 -0.15432532642703434 -2.2846681727812896 -2.93340460933315 0.5872187440528188 -1.258231927981763
0.05184177777923086 0.19592760137786946 0.6255629820402439 -1.49127552565592 1.764947381394482 -1.4261862350064496 1.1744462828780948 2.2712310935466014
-0.03631965385166543 -1.338291897237433 1.1255784735090955 -0.44575535369247604 -0.9013852822311714 -1.2439479753756404 0.24070132483266438 -0.25786016900193437
-1.4287658287598504 -0.3325847586839074 -0.28911387190613125 0.9918802642419287 3.109166410291244 0.0961334080092478 -1.148842868196432 0.23723974105900933
-0.2532892828096359 -0.8301666129350025 1.3322975158293786 -1.292179401466147 0.8745302526669543 0.21585519872305556 0.042143011668621236 -0.15935023992797198
0.0324695972536754 0.4261238198969175 -0.006878918200846549 0.6160261093186452 0.7175729335359531 -1.5709667331786996 0.07443858018607297 -0.837780236650022
-1.6046306969367086 0.9579776876023622 1.0485468459809086 1.1723163450043796 -0.5341011906080309 0.4098718038032209 -0.2430527463311823 -0.3605849973436371
0.7053247529664409 1.6399023579018814 -0.20380946512496564 0.13788034488620016 1.3547764721534794 0.12433856583257585 -0.09235274174673619 -0.5917474773489185
-1.4540959418286592 -0.7522165733147707 -1.0016789402528117 -0.16126064181852745 0.6201196040918461 -0.7005837950470613 -0.7019864351019579 0.23576517507843447
-0.46773408924758275 -0.07017680424094085 -0.5108693276935018 0.12310250153981052 -2.1045823676152837 1.0749960801481047 0.8321520898069894 1.464063462515887
1.2032165845604406 -1.2750391567490522 -1.8280054371214496 0.4777922270554184 0.40748828801172815 -0.36249773806037927 1.0242880572057305 0.2842889902152733
1.3773861227754365 -0.8855534895226692 1.4385372705535526 -0.9833532361355686 -0.5982205180326466 0.5762363351249083 -0.730189879249989 -1.3537296523680318
-1.2470689483460937 -0.2983042731439495 -0.48416134573577185 -0.2428609285448981 -0.23592536835998976 -0.15347840112493186 -1.401192325771024 -1.1740449868846625
1.834494653123378 1.2908981068170808 -0.7296761068903034 0.07469763012593282 -1.9092047545385646 -0.08520831278857856 -0.9287751213207076 0.7358231126347384
-0.7292181524601583 0.7197789723751687 -0.9570319179094112 -1.5749807839337808 1.0825448113189597 0.4851326428343995 -1.1818282195128984 -1.974588449382543
0.9291073545393537 0.5865201261966261 0.09287250968770051 -0.4975161299981058 0.5446333327447862 -0.5777853978849313 0.7042587622103358 0.2744988517405
-1.9134955129426157 0.644770744395383 -1.1848059564108908 1.2869234503910638 0.1798416221737975 -0.325018399269551 0.18866771143289526 -0.6091731207265481
-0.8023328165483665 -0.03884738822925231 0.3388181609026047 -1.1638274585445503 1.1709427775958081 -0.1098432808104778 -2.1067495360244566 -0.2241508330059146
1.268158672458695 0.033919321186581156 -1.6167931613558189 -1.1981654983107648 -0.4753226741956494 -1.0777781987289083 2.42197968739411 0.07428090574827821
-0.18104602648141221 -0.14700689865233454 -0.6390315401670121 0.3497740807838283 -1.5777522815787361 -0.12469318113695962 1.1064218531915646 0.5830497193466773
-1.2072590542875066 1.9481191350497598 -0.21282284790491915 0.8243750031658272 2.4608403490693105 -0.6184361665939311 0.949871255724706 -1.2992929206458275
00000000: b133 eb75 92fa f33f 6f2f 19ff a398 ea3f
00000010: 99f4 9598 b8f9 00c0 1277 3cc6 d5ea f03f
00000020: 54ee 41df 2bc8 f33f ec7c ffc4 8617 f43f
00000030: 7f1c 0027 4e28 f53f c8ac c4d0 66a3 e43f
00000040: 3e55 8052 d466 0040 de46 2b2f 3048 06c0
00000050: c199 4f90 c9bd dcbf c2cb 40d2 a7d3 f4bf
00000060: 2632 855e 6b34 d4bf 49ba 79ab 6eed f73f
00000070: a0a6 f9d6 22c5 df3f d46d c2cf cedc e4bf
00000080: 0fb6 7940 85ed e63f 4395 c3b5 d5a4 ee3f
00000090: c6ba fca8 a2ff d73f f4a5 426f e3e2 cebf
000000a0: 7661 8669 53c3 d1bf 930c 132d 357c f0bf
000000b0: 236d 86ce 3493 ec3f 81a9 5c52 f10a 02c0
000000c0: 1624 7499 001a d83f 4fd6 5613 778d f7bf
000000d0: 9b6f bb43 47fe da3f d80c 2d74 ed25 e93f
000000e0: 6a50 bf8a 77df 84bf a8c8 1688 6fdc c2bf
000000f0: 9b13 3d8d 3667 ccbf d746 378a 23c0 02c0
00000100: 8015 f9ce 734a ac3f 2655 0673 499c f93f
00000110: 2a26 bbcb 0600 f13f f3f3 0c1f 4aa3 e6bf
00000120: cfb2 fff3 f371 cdbf ec1a 2d53 bbf0 fbbf
00000130: 78c4 bf29 4472 ea3f 150a dfb3 f6e8 e2bf
00000140: 6ce4 f649 03af cbbf 3915 d544 a971 e3bf
00000150: b0d6 ee13 a313 f63f 8944 e30c c2ba c63f
00000160: 5d60 5822 03f5 e33f e5fc 736b a651 c3bf
00000170: 2f92 1a85 e675 f23f 8f28 7042 8a12 01c0
00000180: 928f cd22 8815 f4bf 908e f53b 98f0 f2bf
00000190: 62df 403f b0f9 debf c6cb 5be0 ad50 af3f
000001a0: 95e8 0f31 b813 d83f b8a7 3d74 b4d2 f13f
000001b0: dcaa de9d 97b1 f9bf 6c3f a460 2d5d e03f
000001c0: c827 25e8 c6b8 edbf b5b1 dc3c 78d1 f93f
000001d0: e76e 8c71 52cb e9bf 7b74 a8f6 f95a a4bf
000001e0: 3b21 d6d6 6069 fabf 0f09 1609 447a d8bf
000001f0: c868 f01b 795f ef3f ad20 62db b7b9 c3bf
00000200: ae87 df4f 7ede dd3f 6cf5 bf89 93f0 ecbf
00000210: 80ae 9e73 c028 e5bf 2b3e ca9f ce8e f93f
00000220: 1144 d9c5 d653 dfbf 3a4f b649 b088 d23f
00000230: a1af 45cc 6f88 c03f c125 7bc8 33fd ad3f
00000240: c970 5d1f 0b15 cfbf c152 dca2 3060 bc3f
00000250: 6471 a3c1 b948 eebf 44c8 88ef 0b71 e2bf
00000260: 375a 3fee 7158 ca3f c80c 23d8 ce02 d73f
00000270: 03dc 76b1 9915 dbbf 259d 934c 52c6 dd3f
00000280: ce5d 0974 b69a dfbf 8442 9cd3 cd69 eb3f
00000290: 2be3 a268 aa85 bb3f 066e be7e 9ed8 e8bf
000002a0: efed d6b8 aee7 d4bf 8aa6 7105 bf7e f13f
000002b0: a5a8 7158 616c e6bf b078 f0af 4721 ccbf
000002c0: 95fc 1d2a 8f26 f83f b665 27b2 90c1 f93f
000002d0: 4fbd de63 ea9c f0bf f06c f9aa eec0 c3bf
000002e0: 3476 621b 0047 02c0 1b2c f8d5 9c77 07c0
000002f0: fbc2 a9f6 7eca e23f 696f 57cd b721 f4bf
00000300: 05b0 4168 018b aa3f 409d 26d8 2714 c93f
00000310: 456f aea8 9c04 e43f 3647 c0b9 43dc f7bf
00000320: 9200 2477 393d fc3f a9ba 55a8 a8d1 f6bf
00000330: 44ec 7d2f 88ca f23f 1b87 2335 7b2b 0240
00000340: 3b69 fd5a 7d98 a2bf 612f b2c3 a469 f5bf
00000350: c6d9 cc92 5e02 f23f fb11 8876 4187 dcbf
00000360: 62ea 88f2 25d8 ecbf e19e 02fe 35e7 f3bf
00000370: 204d 210f 4dcf ce3f 537a 33f0 c780 d0bf
00000380: 80a7 c28e 39dc f6bf ff81 6c95 1149 d5bf
00000390: 7808 2a78 d780 d2bf 06f1 0eae 7bbd ef3f
000003a0: 4f2e 90a3 92df 0840 04e7 73f3 329c b83f
000003b0: 1f58 320f a961 f2bf 5b79 9430 df5d ce3f
000003c0: 420f 8640 e435 d0bf 802e 9992 b990 eabf
000003d0: b377 3033 1751 f53f 92ca dd4e c4ac f4bf
000003e0: 6226 52de 26fc eb3f 0bf3 97a5 24a1 cb3f
000003f0: 224c bed1 c493 a53f aed9 8cb2 9665 c4bf
00000400: 543d a3e4 da9f a03f 283f a0d7 9c45 db3f
00000410: a49c 458b 112d 7cbf b62e 2063 7cb6 e33f
00000420: b003 4183 5bf6 e63f 1db4 6103 ae22 f9bf
00000430: 30b9 7523 680e b33f 1ab4 b47f 18cf eabf
00000440: 7c03 d83c 91ac f9bf 6098 d1d2 c0a7 ee3f
00000450: c1fd bc0e d9c6 f03f d2c2 a5c8 cec1 f23f
00000460: 2451 4d61 5b17 e1bf 8bca 38f2 563b da3f
00000470: 4203 5936 5a1c cfbf 0d3a c118 d313 d7bf
00000480: c59a 6137 0592 e63f 5f26 3d41 0a3d fa3f
00000490: 7bda a9b5 6d16 cabf 3412 062a 10a6 c13f
000004a0: 95a1 1418 2aad f53f a8e8 e1f9 a6d4 bf3f
000004b0: cc87 7fe5 6da4 b7bf 0988 d667 98ef e2bf
000004c0: 1468 361b fa43 f7bf 11ad bc7d 2812 e8bf
000004d0: eca4 177f e006 f0bf ba0b 5f4f 30a4 c4bf
000004e0: b3da 6511 05d8 e33f d2b5 fab4 2e6b e6bf
000004f0: 01f4 9f41 ac76 e6bf 0ab1 3fa2 8d2d ce3f
00000500: d0bb 22f6 5aef ddbf 1713 2767 1bf7 b1bf
00000510: 9d23 dfa1 0a59 e0bf a955 2b42 a583 bf3f
00000520: ca2a c547 2fd6 00c0 6407 f916 2f33 f13f
00000530: 429c 606b fda0 ea3f 5b63 2ccf cd6c f73f
00000540: 1112 8b08 6040 f33f 9fb4 7575 8f66 f4bf
00000550: 898c 15a1 823f fdbf 171b 5fd9 2594 de3f
00000560: 91db a0c1 4914 da3f aff8 75b6 2933 d7bf
00000570: a11c b6df 7b63 f03f fe98 e572 ca31 d23f
00000580: 4c8e f407 c609 f63f 2f79 8b45 7456 ecbf
00000590: 7eac 31a8 3f04 f73f ecc6 b334 a177 efbf
000005a0: 79e2 175b 9f24 e3bf ab1b c42e 8770 e23f
000005b0: ecf6 672a b75d e7bf 03bd 886c e0a8 f5bf
000005c0: b00e d091 fef3 f3bf 9742 5ace 6a17 d3bf
000005d0: 100a 7bde 7ffc debf becb c920 1116 cfbf
000005e0: 8792 b36e cd32 cebf 75aa bc24 2ea5 c3bf
000005f0: ce7b e9a4 486b f6bf ed3c 6b65 e3c8 f2bf
00000600: dca0 bd10 175a fd3f 7cf6 f3c5 84a7 f43f
00000610: c986 f8b4 8159 e7bf 23c6 7a46 621f b33f
00000620: 03c6 e148 1a8c febf 7137 c644 36d0 b5bf
00000630: dc25 6d9a 86b8 edbf 2d07 8de9 dc8b e73f
00000640: d5e8 8e4e c155 e7bf 1165 56e9 6d08 e73f
00000650: 3fc5 9466 01a0 eebf 3b2f ed0c 1f33 f9bf
00000660: 5b1c 1182 1a52 f13f e687 ccc8 690c df3f
00000670: d2c3 04b5 c4e8 f2bf 9a84 d20e ea97 ffbf
00000680: f906 c758 3fbb ed3f cbba 0edb c5c4 e23f
00000690: ad5d ce27 7ec6 b73f 22c2 e4e4 4dd7 dfbf
000006a0: 3569 0ee2 a26d e13f 45b5 80cd 377d e2bf
000006b0: b6ac f3ab 4989 e63f c3f5 c0a1 6391 d13f
000006c0: b819 9278 ad9d febf 5810 9341 f6a1 e43f
000006d0: a040 2e17 f7f4 f2bf 5c29 3e0b 3d97 f43f
000006e0: 2018 d9de 0c05 c73f e480 ddf8 19cd d4bf
000006f0: 7b2d 3579 4326 c83f d8ed e3a0 587e e3bf
00000700: 50a6 f2de b5ac e9bf 3695 f50b cee3 a3bf
00000710: fd85 175e 32af d53f 942b 8a8a 099f f2bf
00000720: af2e 747e 2ebc f23f 492f c472 b01e bcbf
00000730: aab4 3080 9fda 00c0 fad6 9078 f9b0 ccbf
00000740: fa94 85bf 604a f43f 62d4 658e df5d a13f
00000750: 10b7 8681 62de f9bf 610b e795 af2b f3bf
00000760: c9ec 2dcb af6b debf 841e 3e5a 943e f1bf
00000770: d878 e7e2 3660 0340 0bf7 e7cc 1204 b33f
00000780: 287a 6725 842c c7bf d1c3 ff3e 1fd1 c2bf
00000790: 8c27 c445 f272 e4bf cc1e 7dd3 b262 d63f
000007a0: f21e 292d 793e f9bf 5277 046f e4eb bfbf
000007b0: 8899 b066 e7b3 f13f 9026 91e2 57a8 e23f
000007c0: 886f bfde ee50 f3bf 2702 5cf8 7e2b ff3f
000007d0: 4dee cb71 c73d cbbf 8696 c7af 4761 ea3f
000007e0: 7670 9f10 cdaf 0340 c4e7 c5a4 3aca e3bf
000007f0: 26f0 5767 5865 ee3f 0892 a15f e7c9 f4bf

arr_3 f8 [16]
-0.5034601292677412 -1.2462876265879361 -0.07098638526702503 0.15604715359065147 -0.3226436328839852 0.46484490101489023 -0.2012642073125924 2.2842760978510164
0.5719884779896813 0.46077455012938173 -0.010001410793261488 0.294520645435846 0.24654135843512426 -0.14760837643758634 -0.7230846862936465 0.7228556546038095
00000000: aa6f c16a 581c e0bf a1ac 594b cbf0 f3bf
00000010: 86e1 2eeb 292c b2bf 6422 a766 5af9 c33f
00000020: 4bf5 df7a 31a6 d4bf 5b90 e4d3 04c0 dd3f
00000030: 4ba8 218a 06c3 c9bf d86f fa8b 3246 0240
00000040: a4f1 d4c7 ba4d e23f aea0 e889 547d dd3f
00000050: d9d7 2aa2 9e7b 84bf 8833 091f 6dd9 d23f
00000060: 0c8e cbcf aa8e cf3f ae21 b5ce d4e4 c2bf
00000070: 05d4 fb7e 8223 e7bf a910 882e a221 e73f

arr_4 f8 [16, 2]
-1.7911044071531954 0.8428078903415929 -1.1505546499469197 0.9056312953266819 -0.31891915468248816 1.4507569366843591 -0.541525039440191 1.3626077796746805
2.9391416742233982 -0.6352438945872143 0.42889188176866233 -0.11319576738147638 -2.299811952164224 0.8988842530900388 1.8572633508794614 -1.1445516982086288
0.6303058728660429 2.0675193766946736 1.685735444298434 0.22164660486269985 0.60603620777924 -0.0739357534749978 -1.5114533592916273 -1.4464171121864138
0.673667478182195 -0.3761171589341014 0.02847283611258533 -0.3123307949771113 1.3077808284466963 0.7745519363879491 -0.5944999746996693 0.26684199742017284
00000000: 701c 4718 5da8 fcbf 1f7e ba40 48f8 ea3f
00000010: 2386 1cfe ab68 f2bf e030 757b eefa ec3f
00000020: dd78 dbe2 2b69 d4bf 4a12 d8e7 4c36 f73f
00000030: 1b8b cb51 2c54 e1bf 96a5 afd0 3dcd f53f
00000040: 2ccd c8b5 5c83 0740 528b 0701 eb53 e4bf
00000050: ead7 6def f672 db3f e6f5 f2d6 65fa bcbf
00000060: 4af6 0bcf 0366 02c0 c327 bde8 a8c3 ec3f
00000070: f562 81c6 59b7 fd3f 7932 0671 1550 f2bf
00000080: e4f6 cd38 772b e43f daff 5599 478a 0040
00000090: 5184 afba c5f8 fa3f 35ce 937b ea5e cc3f
000000a0: 7c51 930b a664 e33f cf23 2e1b 74ed b2bf
000000b0: d963 b9b7 e92e f8bf 5272 1345 8624 f7bf
000000c0: 767b 6519 af8e e53f 9387 45b4 4d12 d8bf
000000d0: 2031 b6af fb27 9d3f c576 7d4d 3afd d3bf
000000e0: c43a 0897 abec f43f efde 7a24 21c9 e83f
000000f0: 60da 99cf 2406 e3bf 059d 0775 f013 d13f

arr_5 f8 [2]
-0.10900147328566417 -0.443312974898326
00000000: 844d fa42 85e7 bbbf 7c2b 4562 3d5f dcbf
