models/cartpole_model.npz (npz, 144850 bytes, 6 tensors)

arr_0 f8 [8, 128]
-1.2648559840722422 1.1842809165936508 0.35504683399068065 -0.29794265281644333 -0.5334841106153297 0.4395081383552995 0.5429127679253022 0.024112403805408553
-0.9276609375560827 -0.3156187289955639 -1.1223734312436755 -0.42659442634246647 0.09512655801855247 -0.36923720707867397 -0.7262184577610507 -0.5007409845159126
0.5363497011847818 -0.23053894259801608 1.7680750392988906 1.5641093296254642 0.748273770327241 0.04365696708923581 -0.12700802005995118 -0.4560910240406832
0.11494395197494393 0.7043755430796907 0.06813964736220562 0.08436035857798163 0.3819149730096381 1.2261916258481056 -1.0851554622631145 -1.7648202335927463
-0.5781318681504745 0.10821255443764521 0.16960779850537405 -0.30340737424146597 1.1346168379478017 -1.0312869578060764 -0.1592270099423356 2.3505926067442644
0.6643223576910698 0.3807876011240028 1.1706297039998896 0.15586236527466285 -1.8186159725745965 -0.5305231610610154 -0.003193872883936741 0.514015906446667
0.207751316059934 1.1291639532198128 -0.37793704197202116 0.4167055984757437 0.8136061249618199 0.18209833217655202 0.9875289173546559 0.01593651538066618
-1.6012609519182377 0.6858168637503744 -1.464214690884386 0.10607864137845857 -1.0637571204824845 0.32922639878712123 0.6756638448862327 0.7481757881214568
0.9620812504658943 0.44068330981583764 -0.10309954082526308 1.4199391090490712 -0.42804955491866603 -0.09340338933470324 -0.547593147813885 -1.9118729239453323
0.5780519109209368 -1.358842522837016 0.9537373195045387 1.9518809160732435 0.5671861382650805 -0.2841040075134101 1.0792037101562286 -0.9124601005718969
-0.786124676311889 1.0017145847451063 -1.0214935786985706 -0.683247674021742 1.3233500816192798 -0.2306253095409073 -0.4525292715236224 -1.565076923650708
0.8414718801668043 0.2538525362570096 -0.7828353415835356 -0.1334738065045857 -0.0953444119217555 -0.419865493180259 1.1024480395801564 -0.15668113695424046
-0.27422558643101375 0.9432313609718679 -1.0359685584304237 0.36139273275312395 -1.0085260718397158 0.32325617215072744 0.7364044383702202 0.38298671999712197
0.9654999063770163 -0.12764769139833215 0.2705126345693745 -0.5580989999036329 0.4302242508356015 -0.47175695819089436 -0.4427983876354857 0.18202774950252665
0.7684562758459851 -1.0906921050462959 -0.33244447829276985 -0.5734605137643689 0.6293887929208621 0.20637642468950057 0.7239778115504754 -0.5018633016405466
1.9493965920081042 0.5670998785285045 2.87564215118224 0.2218556386777821 0.23388655015273452 1.0572028236922575 1.4427774446056785 -0.3478871060195568
-0.8113669119150322 -0.40542404513626373 -1.8354687659788997 -0.3375643749584944 -1.626087711785257 0.42856758336435335 1.0086222860546208 -0.8003349408292106
-0.5364059991262049 0.6011348276325653 -2.010077218244466 0.01120674932331293 1.288428767792318 -0.7383333366275695 -0.31311602460806154 1.5020524977953449
-0.7502051271478886 -0.5140156258172508 0.8185030744980537 -0.08800829647514835 -0.677960141036797 -0.1898240432641327 0.1897801280251363 0.2813123936208833
0.8040745720690332 0.3435846566944433 0.7969953582396184 -0.8926088394766467 0.2279870841641676 0.40622607375647274 0.20233535703030958 0.44483962155652823
0.09901203820419698 0.6980910740156644 -0.25065276919474866 0.08962057328168019 0.7150900981918857 -0.1494659257973105 0.8261083338899744 0.7546203446125014
3.0171036233713067 0.5149711250606726 -0.21356103822852218 -1.1021517219588295 -0.06221034389286128 -0.0449237089640369 0.2037077226845986 -1.630822925550378
0.7526676122215751 0.6372322273776424 0.0954934750945976 0.29474973265902077 -1.1482366867339466 -0.551896934581341 -0.49909118315181045 0.009371738814576829
0.2321582406838406 -0.1483769873396171 -0.0007172012443381813 -0.7999000593116139 -0.9250235387850189 -1.732948569680715 1.1314088119003716 0.03268936365041125
0.9745786457353511 -0.4251510667661403 -1.2451703751821437 0.01959931257738648 0.789193276365377 -1.2494155264180153 -0.44013914627550704 -0.1894268458657618
-1.2796656239649626 0.3714612781212344 0.03295837541692698 1.495305458852411 -0.014040156741513462 -2.9623834655190695 -0.05418123944818674 0.1694919502995781
-0.5735056451369784 -0.7304120431574932 2.0098073981317595 -0.44042808064102434 0.30561786695817417 -0.739981301204254 1.3516717995158967 0.5560637065618187
-0.9471626922448005 -1.2985703545683025 0.0783729775573719 -1.8061569004854237 0.037545403879565335 -1.4384406392036013 0.2665665778829313 1.2780555429167753
0.3128689165076844 0.6520891697275343 1.6463414678163633 2.265921051988929 0.1622988000322685 0.5805660501495722 -0.11514415295774949 0.08023791398712951
-0.5591807051472433 -0.43778323623033055 -0.1625173686828564 0.6041339704408762 -0.008077751550890074 1.9726169283391863 1.295377800435748 0.271163439809387
-0.05618785999928723 0.03671486742446905 0.11638149082716284 0.8818945354837294 -0.9187702393678978 -0.5532702701547616 -0.7514564804482934 2.443847920922236
-0.0663459682402444 -0.5277079367647572 -0.8175885123058961 -0.7567499529973654 0.2569669982163647 0.8316973568486549 1.084321612988475 -1.208398566157709
00000000: c4d7 dba0 d93c f4bf 03bf e08b d0f2 f23f
00000010: bf73 225b 16b9 d63f dd86 7b0f 7e11 d3bf
00000020: 5fe9 0045 4d12 e1bf 6df5 23be e620 dc3f
00000030: 873d da98 8a5f e13f 39b5 1607 ecb0 983f
00000040: f68f 92fd 65af edbf 4da0 c2e5 1833 d4bf
00000050: 4a74 d1d7 3df5 f1bf 5afe 72b5 524d dbbf
00000060: ecb4 abcf 365a b83f 5ba2 3718 95a1 d7bf
00000070: 88ba ba7d 2e3d e7bf ef67 08f5 1106 e0bf
00000080: 38db 39d9 c629 e13f ebd9 74d1 4c82 cdbf
00000090: 379a 6a0d 094a fc3f f5c1 2181 9706 f93f
000000a0: dd52 80d5 dbf1 e73f 0d19 c8bb 345a a63f
000000b0: a55c 3e7e cc41 c0bf a33f 1068 9830 ddbf
000000c0: 1bfa 9a82 f76c bd3f f424 3494 3e8a e63f
000000d0: 244d fb94 9971 b13f f8d7 2bf5 a398 b53f
000000e0: ad76 bb7f 4b71 d83f cf58 3a1c 7b9e f33f
000000f0: f5ee 57f9 cb5c f1bf 4c99 2924 b43c fcbf
00000100: db69 4f67 0e80 e2bf c888 5366 d1b3 bb3f
00000110: e612 dd55 b5b5 c53f 7bde 6ec3 066b d3bf
00000120: baa0 47fc 6327 f23f 4a18 c9c0 2680 f0bf
00000130: 27cd 2bf8 8c61 c4bf f07c 217f 03ce 0240
00000140: bf1c 09f6 2042 e53f 5031 63f5 d25e d83f
00000150: b17d 6636 e6ba f23f be14 c448 4cf3 c33f
00000160: d90e e30f 0d19 fdbf 1de2 50b5 0bfa e0bf
00000170: 7adc b072 092a 6abf cafd 797c d172 e03f
00000180: 07d5 165a 9897 ca3f 316b ae38 0e11 f23f
00000190: 38e0 cdd8 1e30 d8bf fbdb 60f5 4dab da3f
000001a0: 6b29 51b6 0f09 ea3f 245e ad86 ff4e c73f
000001b0: a38f 7c3e d699 ef3f 1918 7d71 a951 903f
000001c0: 4d9c cdcd c39e f9bf f94c 1b35 36f2 e53f
000001d0: 2fbd 3a62 6c6d f7bf a84b 8647 f827 bb3f
000001e0: 1dc0 b52f 2605 f1bf 8650 f199 0b12 d53f
000001f0: 1408 9cc8 099f e53f 7880 b459 0ef1 e73f
00000200: cd10 5b9e 5ec9 ee3f ed54 e3c4 2734 dc3f
00000210: 41be 1344 bb64 babf 8fd5 3a12 12b8 f63f
00000220: 8c5a dcf5 2965 dbbf ee31 87d6 48e9 b7bf
00000230: 83fa ab10 e285 e1bf e33f 2710 0897 febf
00000240: 9c76 99b8 667f e23f 62fc 3fa8 d1bd f5bf
00000250: f0e4 8720 0485 ee3f a289 c37b e73a ff3f
00000260: 4efa 528b 6326 e23f 49b0 3b93 c22e d2bf
00000270: 607c 0d1c 6b44 f13f b08e 5b86 df32 edbf
00000280: 1ed2 eaef ee27 e9bf d480 56df 0507 f03f
00000290: 8d59 99a6 0958 f0bf f7b9 df39 2add e5bf
000002a0: 786b 9b22 712c f53f 5bd5 0d51 2185 cdbf
000002b0: 6f4e 6b55 3df6 dcbf 83dd ac19 8e0a f9bf
000002c0: e53d ba6f 56ed ea3f afc0 4eb5 1e3f d03f
000002d0: 0423 c8b3 fc0c e9bf 6fa8 e770 ab15 c1bf
000002e0: 526f 0fcb 7d68 b8bf 6066 7b84 13df dabf
000002f0: ce93 388e a0a3 f13f f82c 8fa3 200e c4bf
00000300: e5a5 5c79 e98c d1bf 9cf1 fd88 f32e ee3f
00000310: 7649 62c4 5393 f0bf 79f3 0bfc 0e21 d73f
00000320: 5670 fb3b ec22 f0bf 7485 e7a7 3ab0 d43f
00000330: 2ebd 6d0a a090 e73f 1c28 4cbb da82 d83f
00000340: 67c5 450f 60e5 ee3f 469d fb71 c256 c0bf
00000350: 3956 a839 1450 d13f 6f86 106f f2db e1bf
00000360: 973d d24b cb88 db3f fac7 c518 4431 debf
00000370: 976b 670c cf56 dcbf 68f6 896f af4c c73f
00000380: 4343 a59d 3197 e83f 28de 9290 7973 f1bf
00000390: e534 8034 c546 d5bf 524a 05dd c959 e2bf
000003a0: 720c 42f7 f323 e43f d078 5aed 8a6a ca3f
000003b0: 3872 f483 d32a e73f b97a 73a0 430f e0bf
000003c0: 15bd 197b ba30 ff3f 550e fba4 ae25 e23f
000003d0: 4e9d 12ac 5001 0740 37f2 46fc c365 cc3f
000003e0: 50ac f095 feef cd3f 1ff4 0f82 4dea f03f
000003f0: 32ce 3fcd 9d15 f73f 1176 c347 c843 d6bf
00000400: 1269 f7bd b7f6 e9bf 72d3 b7b1 77f2 d9bf
00000410: 7557 2b7f 145e fdbf 5773 af9b a79a d5bf
00000420: f2b8 688c 7404 fabf df3d abba a66d db3f
00000430: 10f1 491f 5123 f03f 4aa4 9605 589c e9bf
00000440: 1602 f4e9 3c2a e1bf 1164 251b 7f3c e33f
00000450: 6a5b 565d a314 00c0 566d b46e 90f3 863f
00000460: 1f4c ce7b 679d f43f 4295 cb3b 6da0 e7bf
00000470: d4e3 62cb 170a d4bf 767f 2e33 6808 f83f
00000480: d588 cc2e ae01 e8bf fe93 d0e5 d072 e0bf
00000490: 80a0 145c 2d31 ea3f e42e 2333 b687 b6bf
000004a0: b0d3 3777 d9b1 e5bf 282f e87c 274c c8bf
000004b0: 473a a619 b74a c83f 41ea a3b2 0501 d23f
000004c0: 3a9d d298 faba e93f cb3d fa7f 4afd d53f
000004d0: b17e d668 fc80 e93f da86 b569 4090 ecbf
000004e0: b99f 3247 ae2e cd3f 1942 64a5 9bff d93f
000004f0: 5484 a2fe 1fe6 c93f 3438 a39a 4078 dc3f
00000500: ed50 ff59 da58 b93f 7fdb 9017 c356 e63f
00000510: 54f8 95e9 b10a d0bf 9228 4bb7 5ff1 b63f
00000520: b8ae 2da1 04e2 e63f 4e39 950f b321 c3bf
00000530: ec55 a0be 7a6f ea3f e138 a090 d925 e83f
00000540: d32e 7839 0723 0840 24a3 90b9 a47a e03f
00000550: 6616 72d5 f755 cbbf 2fb1 10d8 69a2 f1bf
00000560: 0f4a fcc0 08da afbf 2691 a189 3d00 a7bf
00000570: 15be 6f3b 1813 ca3f 09e5 acc7 d917 fabf
00000580: 9d00 6863 da15 e83f 2b6a 11d7 3464 e43f
00000590: 783f 83a8 4272 b83f 7d9d 91fb 2ddd d23f
000005a0: 676f 996e 2d5f f2bf ad43 99c2 23a9 e1bf
000005b0: 66f9 5625 1cf1 dfbf e9da b87d 7d31 833f
000005c0: 74f3 9d79 5cb7 cd3f 0324 0d62 04fe c2bf
000005d0: b778 cdf1 5180 47bf 9cfa 5902 c898 e9bf
000005e0: 3994 e3f6 ca99 edbf bedb 8647 28ba fbbf
000005f0: 014b 5820 401a f23f 5873 9c07 a9bc a03f
00000600: 9406 5a8e bf2f ef3f 79af e7d1 ac35 dbbf
00000610: 8baf 75c5 37ec f3bf e802 2d9a d711 943f
00000620: d9cb 0642 1241 e93f ae47 9122 9bfd f3bf
00000630: 9754 bc61 3d2b dcbf 2a2b fd8d 233f c8bf
00000640: 4feb 4ba9 8279 f4bf 3eb5 5086 05c6 d73f
00000650: 2809 1791 ebdf a03f 73d2 b46a c5ec f73f
00000660: b1bb 48f0 15c1 8cbf a4ec 341a f6b2 07c0
00000670: ad31 f9b6 a4bd abbf b468 bc87 e9b1 c53f
00000680: 18e9 bd82 285a e2bf 42e9 be13 895f e7bf
00000690: c9e0 b1e6 1514 0040 d0f7 a542 f92f dcbf
000006a0: 1c27 ea3d 3e8f d33f 8a5c 0a44 edad e7bf
000006b0: 388a dd9b 72a0 f53f 1f9e 451d 46cb e13f
000006c0: efd8 6522 284f eebf d4d0 46b5 f1c6 f4bf
000006d0: 05c2 7f5f 4010 b43f 5479 30c7 04e6 fcbf
000006e0: a741 8eb3 2639 a33f 6dde e954 da03 f7bf
000006f0: 57af 8d43 6d0f d13f 02c9 745e ea72 f43f
00000700: 2978 1559 0b06 d43f 17c7 411b eadd e43f
00000710: 611e a526 6a57 fa3f 07e2 6c37 9b20 0240
00000720: 18c9 2803 35c6 c43f 0cee d140 ff93 e23f
00000730: c076 4753 167a bdbf e656 79d0 788a b43f
00000740: 102c 25ef cee4 e1bf fa29 96fa a304 dcbf
00000750: 0d2e c37f 5ecd c4bf 3947 aec3 1055 e33f
00000760: fee9 e375 118b 80bf 640b acc4 d68f ff3f
00000770: 0f60 8d12 deb9 f43f 258a 76e6 bd5a d13f
00000780: f221 42ba a7c4 acbf 7fea ba85 4acc a23f
00000790: 165f f668 2dcb bd3f 318f 8de3 7a38 ec3f
000007a0: 5cf1 53d8 9066 edbf bc3d 85da 63b4 e1bf
000007b0: dd90 fc75 ee0b e8bf 9c11 8623 008d 0340
000007c0: b734 d0a3 0cfc b0bf 0cd1 47c1 fbe2 e0bf
000007d0: 400d 3e62 af29 eabf 6ef1 6bad 4b37 e8bf
000007e0: 9c65 5fb5 2572 d03f 29b5 7ac6 439d ea3f
000007f0: 7f1a a29e 6159 f13f f4e3 22bc 9955 f3bf

arr_1 f8 [128]
0.13653729141289095 1.8722036210105686 -0.1739307517329183 -0.13529108535665313 0.5150266905438705 0.16421596501116145 -0.43962383291775614 1.0038795958863977
-0.052436967710887857 0.7716940925902351 -1.0259669015844313 0.6217469540548521 -1.0881032714496426 -0.09493049771750915 1.6464173291404356 -0.13866353466391051
0.49978089607200893 -0.8973304881538618 -0.36472270802069817 -0.5058858711556343 -1.4345694164657563 -0.6383797074482347 0.3602578047691486 -0.13720431321086238
0.9105248716004711 0.7017979856077114 -1.1255764985386238 0.7440814509492165 0.25900802253131605 -0.38143331607029973 -0.4013351731035034 0.780069609263362
-1.8039232799816196 1.5420021994874002 -0.27031691227063825 -1.1806345393590008 -0.6494192157559789 -1.695679364299063 -0.3384325813345003 -1.4267635862253698
-1.559321401008275 -0.7899038760058275 0.8412518913441599 0.24533331953138304 -2.2009498166472663 0.7892159918651754 -1.8644832128439708 0.5836086266884124
0.7984006445965562 -2.3983156660540548 -0.8127122387396045 -0.5099480230477842 -0.18056577585887426 0.7256270776988665 0.22132129236128442 -0.7157212129763398
-0.240771973246379 1.157974093418544 -0.07974790654565847 0.6839497946692522 -1.1799323853002115 0.5605972159846951 0.17456652133542727 -0.9670897619229101
-1.1056344826739488 1.0341785918693291 1.81810148192234 -0.9602730556674028 -0.4904312159101213 -0.9246814385152493 -0.6674277928898805 -1.0790366545774785
1.3131644571481216 -0.17634903830828788 -1.483441505461861 0.7817124045396838 2.769840065308719 -1.2947340381848806 1.8887057712881288 -2.1190045620557814
0.1768688115839409 0.3074761347593491 0.017913361102944097 0.045732011401992984 -0.2004433088066088 -0.6924767811782562 -0.3866853899005944 -1.3306219894813271
-0.23463293880406652 -1.6001998256840098 -0.39756362963724406 -2.0320544755105825 0.14110709612608402 0.28718999232045533 0.0854141619475232 -0.4703649259124214
-0.799201347529665 1.37586118126339 0.20678758523813107 -0.11866399985245868 -0.8209057161941947 0.15453094376065152 0.801246404028927 -1.554599408028571
1.0744429296709206 -0.021277785378508836 0.9221161787124366 0.17100377634932112 -0.5790616995867369 1.0452758883215825 -0.11319737316270219 0.1247914045385489
-2.1790328936132877 0.21992124579496025 1.4725003529966945 0.9925846297762052 -1.022051656125004 1.7511212666136509 -0.41442863678846315 -1.452684653895222
-0.26622081456708385 0.45813225045369466 1.1510004525161677 -0.8159845536425925 -0.8441235273650701 0.9937474846599066 -1.575841062122859 -0.3632755233165337
00000000: c4c1 a6d0 0d7a c13f 3a17 bbc8 8bf4 fd3f
00000010: 0915 3be5 5c43 c6bf a809 86e1 3751 c1bf
00000020: 467f 0e41 197b e03f 491d 9a5b 0705 c53f
00000030: af21 3b00 cc22 dcbf a942 170d e40f f03f
00000040: 29df d6aa 04d9 aabf 6820 46cf b7b1 e83f
00000050: 5b56 1145 5c6a f0bf dab3 41de 59e5 e33f
00000060: ccbf d8f9 de68 f1bf dff6 1677 5d4d b8bf
00000070: 099d 83b2 b957 fa3f babe 4309 babf c1bf
00000080: e0de f202 69fc df3f bb62 8a6d eeb6 ecbf
00000090: 5aad c3e9 9d57 d7bf c3e6 0391 3730 e0bf
000000a0: e2fe 780f fff3 f6bf 6872 bd47 9b6d e4bf
000000b0: 0a2f 67c0 760e d73f 852e 0e33 e98f c1bf
000000c0: f5fe 360e 0523 ed3f 7cae 920c 2175 e63f
000000d0: cee9 a580 5c02 f2bf 3b63 2ce7 83cf e73f
000000e0: d01c 8b62 9693 d03f fa1c 8848 6769 d8bf
000000f0: eeb2 cdb8 79af d9bf eb77 8c8a 54f6 e83f
00000100: c939 40a8 dedc fcbf 0589 927f 0aac f83f
00000110: 9684 704e df4c d1bf ed32 f10a e1e3 f2bf
00000120: d51b a2ce 0ac8 e4bf 2caa 62af 8021 fbbf
00000130: ebe1 2e21 e1a8 d5bf e062 df0d 06d4 f6bf
00000140: fb88 54ff faf2 f8bf a6b7 4d7e e446 e9bf
00000150: 97ae 2016 89eb ea3f fcd1 000c 1567 cf3f
00000160: ff18 d593 8b9b 01c0 f150 51e5 4141 e93f
00000170: 9cb1 7159 ecd4 fdbf 5a49 a9ff ebac e23f
00000180: 8db8 3482 7f8c e93f 347e b91f c02f 03c0
00000190: e941 ce18 bd01 eabf 84cd 3484 7e51 e0bf
000001a0: 159d 0b83 c71c c7bf bae0 f946 5638 e73f
000001b0: 69d2 4c90 4154 cc3f b72d 592c 30e7 e6bf
000001c0: 9c7b 71b3 9dd1 cebf fb90 cdd7 0f87 f23f
000001d0: cabe 89da 5b6a b4bf 37bb 06ae eae2 e53f
000001e0: ddb0 e5c7 00e1 f2bf d540 9c92 69f0 e13f
000001f0: d05a 0e1e 3258 c63f 9f2b 783a 66f2 eebf
00000200: bfa1 86c8 adb0 f1bf 67d5 e4d9 fe8b f03f
00000210: 3da6 5a94 f116 fd3f 9649 2a8f 8eba eebf
00000220: 0660 519c 3963 dfbf f684 3487 fd96 edbf
00000230: 75e9 dc87 915b e5bf 3f87 69f0 bb43 f1bf
00000240: 4c88 dbbb b802 f53f f589 1bf4 9a92 c6bf
00000250: 9dcd f728 2dbc f7bf cd03 8cbb c903 e93f
00000260: 2d36 7de8 a128 0640 6e5a f009 3bb7 f4bf
00000270: fa2e f78a 2338 fe3f c7d5 f0a9 b8f3 00c0
00000280: 96bb b720 a3a3 c63f 94e1 c561 b0ad d33f
00000290: 0bf3 6450 e157 923f dc26 b4aa 2f6a a73f
000002a0: 8561 0358 20a8 c9bf 76cc 0c11 c528 e6bf
000002b0: 30b3 dd13 74bf d8bf 7592 8248 3a4a f5bf
000002c0: b329 5dbf 7308 cebf 270b e621 6b9a f9bf
000002d0: c9be d7b8 ae71 d9bf 2c11 e0c6 a541 00c0
000002e0: e62a 8c1d cc0f c23f 694f 3022 5261 d23f
000002f0: 4b0b 2ed8 b3dd b53f 10ad 7e7d 751a debf
00000300: abe3 51b4 0e93 e9bf 86cb 9503 8703 f63f
00000310: de85 e8fd 0378 ca3f 1830 948e c360 bebf
00000320: abe9 8410 dc44 eabf 8a04 d682 abc7 c33f
00000330: 63f0 aa7f cfa3 e93f 9ad1 fda0 a3df f8bf
00000340: 36ae c511 eb30 f13f 72f8 5301 d8c9 95bf
00000350: 46d6 d5c9 f981 ed3f b2d7 74a5 73e3 c53f
00000360: 35eb c266 ac87 e2bf 7b37 ba35 73b9 f03f
00000370: 0917 bac7 80fa bcbf 1aa2 5059 54f2 bf3f
00000380: 8cd1 37cc a86e 01c0 7245 311f 6126 cc3f
00000390: 1582 b787 5c8f f73f 8fd5 6cd7 40c3 ef3f
000003a0: 8e12 5ed6 525a f0bf bdf8 b6bb 9704 fc3f
000003b0: 6511 62b0 ff85 dabf d018 7e43 323e f7bf
000003c0: 7320 0507 c309 d1bf 8841 3cee 0952 dd3f
000003d0: 6dcf 5373 7f6a f23f 78f4 7da3 8b1c eabf
000003e0: fd25 fa57 0f03 ebbf 0617 6386 c7cc ef3f
000003f0: 722f 181e a536 f9bf 2c3c 05fb e73f d7bf

arr_2 f8 [128, 128]
-2.012153451854707 -0.19806381568800444 1.8238998514128064 -0.3313060053250966 -0.03777968332632911 -2.4442665315361163 -1.0875742353528182 0.13470618655227734
2.1293192240708487 -0.7769701875004327 -2.0799398432201537 0.5210846915072941 -0.3759011851244397 0.9502139457239841 -0.6312612470602752 0.2917747753170296
1.447052003778578 0.6053970260348502 -0.4503802091673279 0.23751945542091144 1.1554564128440261 -1.2106125713014217 0.30372786823111053 -0.5583841425564069
-0.4154134570457189 0.08361395394359805 0.22551398060711983 0.8320901344842384 -0.9749375319308273 -0.5088101524652664 -1.350736020121459 1.1188736593972672
1.1607275816338787 -1.0188869747145048 2.31312734472527 -0.4503591222590649 -0.899072665853148 -0.6341509246204977 0.717609782811709 -0.3596298474854215
0.11077516236586164 1.1577839799520295 -1.0466226666049143 -0.800434464066569 -0.8875242935157457 -0.193537033636174 -0.5348762166132811 -1.6426466735110732
-0.7570417283171056 -1.2663178513572668 -0.5707674204058223 1.5162367985489564 0.9761771161957072 -1.0583832709586407 0.5480256607125464 -0.10846100736511663
-0.16307926485303081 -0.20074882077961262 -0.011841536423525596 1.5169127449291961 0.39984693261384235 -2.2546691125427585 -0.33697806682526604 -1.1669970005449952
-0.3990972366896091 -0.21965989505452999 -0.9174289867941035 -0.359874058450659 0.3091946283167316 -1.2664270551172248 -1.8800032576300396 -0.6214219647757648
-0.3730665678793173 -1.0126700969818558 -0.18059887483124518 0.7505028580218956 0.9716054787330127 0.6295780908719056 -0.45513040031754415 -0.37399748496231905
1.3602546778139226 -1.4714664916111226 0.32009042377884606 -0.8911754951102931 -0.6236430739494052 -0.5115400406036086 -0.45449100309449236 1.3009029052962846
-0.0775867664298008 0.16498842987186713 0.10014939494235137 0.905654956858976 -1.8096174878710816 1.2341594820951034 0.0063255774253737854 -1.1215980411511353
-0.8979001933072244 -0.06900938057257924 -0.8644820663020848 -0.4158493780764761 -0.6120323945895454 2.5079778368209587 0.4603366363416011 0.789065298672809
0.13364386802915323 -0.43433846458145575 -0.12541599789438218 -1.1006093672135902 -0.0953330264323461 -1.010203183141576 -1.0093746357311906 0.8582002675553358
1.0074258413832393 0.06436490203204104 -0.4602949051798582 -0.702025206991973 0.7891219770529068 -0.40057001792833763 1.2601439315903045 0.36177512509052046
0.06658900562212383 0.5950133766913921 0.9001009605069813 -0.8381624083460664 0.07054628618819182 -0.7379176447741677 -1.501272421965259 -1.2244718236692291
-0.04689365535486354 -1.8628740787029798 0.43312618592194246 1.0143415202393689 1.7056680163223799 -1.6562699264669816 1.6463295786632504 -0.2586545893857645
0.5553166338456543 1.0251411004772577 -1.8174677468955436 0.3409298741257695 -1.0869294282027842 -0.8824048358546976 0.3215546027077496 -0.22800496373231222
1.592322688273936 -1.981124017598887 0.9230089626163358 0.8804623847299969 1.1617629858183809 0.19538952222094258 -0.9570911799397762 -1.2663578117601217
-1.0263987985457492 -1.2870453225176448 -0.03416534820579848 -0.5633468587407336 -0.000476467424067564 -0.1915281933435571 0.40896316590166654 0.08158027484833673
0.3336611318912233 -0.22501941927448985 -0.12717766656110416 -0.7432840631283749 -0.13217665324864328 1.8594659135137013 -0.2514146252394894 0.16178910565620544
1.1440426336006242 1.1715829081731426 -1.2227372929145093 -0.23118012155145917 -1.5863976982043613 1.1832982373931695 -1.5351507253345815 0.3913303925482237
0.6762849969938323 1.0761717663235058 0.7408197856752217 0.547689683071318 1.1982994468628183 -0.3245430545103991 1.6927129153812237 0.5463879475353203
0.3705716597131219 0.759594741125092 0.8667393234598673 0.2388565567103595 -0.9780484896080472 -1.029117040375298 -1.4942367041522573 -1.5269942055970913
0.9846675371567905 -1.113376686093343 0.2724749088308561 -0.967096605939131 1.007910935082334 1.0100673623906202 -0.6898340821427345 -1.1912846192065525
1.0087330364487592 0.23848749185891688 -0.30107443828991703 -0.9379072300498948 -2.283358310761803 0.09862807900456241 0.6287627811465019 0.9577372127753534
-0.1083701867966152 -0.04070988745034946 0.7161766272901141 -0.014347930391129074 -0.2668180310826216 -2.3082558412915977 -0.487699803376016 0.07598798435354238
0.47010755780107977 -0.06001872687536365 -0.9962601906468872 1.1100473916238645 0.6649211352955301 -0.6400647293418391 0.7694928716857843 0.31413409853410973
1.1446809978945758 0.03228486961767976 0.6542328985793879 -0.018677327020231532 0.6703935373754188 -1.4347036881350357 1.218169265383458 -1.7184526086808063
-0.34323329701465743 0.1417430669012641 0.2984958076067617 1.572888258111959 0.4708328264169249 0.5901943100504818 -0.05912482695552097 0.30200038565875925
0.509092952906999 -0.3139021599115488 1.8504134149408877 0.25948633983728453 -0.6087644120992033 0.39573404027789383 -0.09094022156461364 -0.4297570224566714
0.8013969340555802 -0.04816828322952942 -0.19551039014275318 1.1811962199119699 -1.372861537513959 0.8890217018225653 0.30542873062980536 0.0745978477885432
00000000: eefe b1e8 e318 00c0 5b52 73b5 275a c9bf
00000010: caf4 4f9c b12e fd3f 82bd 751a 1e34 d5bf
00000020: e4fc add0 db57 a3bf 623d 7d9c db8d 03c0
00000030: 4000 cd3d b466 f1bf c6cb e764 0d3e c13f
00000040: f206 7184 d808 0140 ca00 2995 f0dc e8bf
00000050: 3239 2280 b7a3 00c0 df0a 8fcd b9ac e03f
00000060: 6ac6 28d8 c30e d8bf dfcd a213 2768 ee3f
00000070: d464 6bc9 4a33 e4bf 7333 721b 70ac d23f
00000080: b571 7d00 2027 f73f 7c4a 7d95 695f e33f
00000090: 80ea 4883 07d3 dcbf 5f28 999a 0967 ce3f
000000a0: a6e5 11dd bf7c f23f 71db 9d49 ab5e f3bf
000000b0: 42ee 3b03 4770 d33f 0850 dc6b 48de e1bf
000000c0: 3519 1553 2296 dabf 2050 ad5d b967 b53f
000000d0: 31ca bf61 a4dd cc3f b4e3 5d7d 7ba0 ea3f
000000e0: c225 e931 b032 efbf 46c1 963a 2c48 e0bf
000000f0: be36 7f5f 9d9c f5bf 4479 f710 e8e6 f13f
00000100: 41ec aa15 5792 f23f c081 ab6d 5c4d f0bf
00000110: 77a0 c8e8 4881 0240 71b5 6311 afd2 dcbf
00000120: 4823 120a 34c5 ecbf 7224 3fe1 f64a e4bf
00000130: 16e9 8eca a8f6 e63f f261 67e8 2c04 d7bf
00000140: 0b0a 92d3 c25b bc3f 82a0 9b7e 4886 f23f
00000150: 6f20 c568 f7be f0bf fe3a b8bc 289d e9bf
00000160: bec7 e158 9966 ecbf c31f 044f d2c5 c8bf
00000170: 6364 38ba b41d e1bf decf d9e0 4748 fabf
00000180: 8289 1a93 af39 e8bf 2aba de81 d642 f4bf
00000190: 417d 8809 ba43 e2bf f226 6c84 8142 f83f
000001a0: c140 a5ca d73c ef3f f569 f64b 23ef f0bf
000001b0: 3c22 441c 6d89 e13f 7e3e 86bf 19c4 bbbf
000001c0: e088 9906 c8df c4bf 8fc0 fa29 23b2 c9bf
000001d0: 0432 631d 6040 88bf 2cb4 654c 4645 f83f
000001e0: 21df be96 1797 d93f 4361 adf5 8f09 02c0
000001f0: e9f6 1e74 0c91 d5bf ffee fd0b 05ac f2bf
00000200: b95f e022 cf8a d9bf 7c41 c0c0 d01d ccbf
00000210: e0db d508 945b edbf 205c ee33 2d08 d7bf
00000220: fe07 2e44 d8c9 d33f 18f8 0704 4943 f4bf
00000230: cd4f be4b 7e14 febf 904b f750 b0e2 e3bf
00000240: cd72 1199 52e0 d7bf 9ac9 428f e533 f0bf
00000250: b51b 8c2a dd1d c7bf 3b46 d891 1e04 e83f
00000260: 11ba 785f 6417 ef3f 9d55 d2f3 8025 e43f
00000270: 12df 3142 db20 ddbf 2bc3 ac25 93ef d7bf
00000280: ac11 b768 9ac3 f53f f712 aa72 208b f7bf
00000290: ad25 798b 5c7c d43f a3d9 cf78 8284 ecbf
000002a0: d8aa df51 e2f4 e3bf 9895 1f38 895e e0bf
000002b0: 3b7e a76e 6116 ddbf 874d 9890 7fd0 f43f
000002c0: 491b 6bf0 b9dc b3bf c04f 4243 571e c53f
000002d0: a4d8 fd07 64a3 b93f 4e6d a51a 20fb ec3f
000002e0: c8d0 8a77 31f4 fcbf 2859 5a03 1ebf f33f
000002f0: 9a88 b942 d9e8 793f 5307 a0c9 10f2 f1bf
00000300: 9073 aa2f 99bb ecbf 8a2b ad48 99aa b1bf
00000310: e3de 574b d6a9 ebbf 39a0 b9b5 469d dabf
00000320: 6a59 dbf5 c495 e3bf 26e9 21af 5610 0440
00000330: 7938 8fcb 2776 dd3f 77a9 86de 0540 e93f
00000340: f281 3f05 3e1b c13f d66b 318f 33cc dbbf
00000350: 7400 ada4 a10d c0bf 72a8 5d91 189c f1bf
00000360: f970 c1c6 be67 b8bf db87 1ed0 ca29 f0bf
00000370: bc09 9e04 6626 f0bf 1d32 5268 6076 eb3f
00000380: 452e 1e8f 6a1e f03f 68e4 3cdd 377a b03f
00000390: 8dd3 10c3 7875 ddbf e2f0 1f91 fd76 e6bf
000003a0: 38e8 7fbb 7c40 e93f 79a9 b06d f0a2 d9bf
000003b0: 77ee e6ae 8c29 f43f 3a49 b1da 5227 d73f
000003c0: 0c91 6b21 fa0b b13f 4c4e 327e 590a e33f
000003d0: b538 8f87 a0cd ec3f 8ca7 92f8 39d2 eabf
000003e0: 9154 0848 520f b23f df48 ee76 059d e7bf
000003f0: d6a3 2b3b 3605 f8bf 6c86 58c4 6f97 f3bf
00000400: 7d2f 47f8 7102 a8bf e086 c90c 55ce fdbf
00000410: 81dc e4e4 56b8 db3f bc72 862c be3a f03f
00000420: 4b01 bf8b 6a4a fb3f 5962 f8e4 1480 fabf
00000430: e8bc 2caf 5d57 fa3f 97d1 97fa cb8d d0bf
00000440: 2e57 a963 27c5 e13f 465d c55a fa66 f03f
00000450: f937 670f 5914 fdbf 775f e688 cbd1 d53f
00000460: 150e b31c 1064 f1bf 6880 fa10 a93c ecbf
00000470: 0484 a0c1 5994 d43f 4629 4743 442f cdbf
00000480: b50b ed5a 277a f93f 7f84 0e19 afb2 ffbf
00000490: fc43 8b17 4a89 ed3f 91c0 7873 bf2c ec3f
000004a0: 2fb1 dcc8 9496 f23f 02c3 f51b 8602 c93f
000004b0: 5934 a4ae 7da0 eebf 99b3 a868 0043 f4bf
000004c0: e185 8625 216c f0bf cded 0ad6 bc97 f4bf
000004d0: 2995 66da 1e7e a1bf a710 d3fd ef06 e2bf
000004e0: c8cd 0401 cc39 3fbf e115 56ef fe83 c8bf
000004f0: ef3d b4d7 732c da3f 7fe8 78e4 71e2 b43f
00000500: 4dd3 5a38 b45a d53f 2fda 5fb3 6fcd ccbf
00000510: 2fad 5497 5b47 c0bf a3c7 d8a8 fbc8 e7bf
00000520: 29b3 7f21 2aeb c0bf fc16 6954 5fc0 fd3f
00000530: e5f0 485e 2d17 d0bf 253d d262 81b5 c43f
00000540: d4b5 08a6 ff4d f23f df7f 32b8 cdbe f23f
00000550: a1ad cafa 5490 f3bf cc3f c66a 4f97 cdbf
00000560: 6ecc 838d e261 f9bf 2b4a f021 caee f23f
00000570: 20e2 fb34 fa8f f8bf c93a 7ba1 8e0b d93f
00000580: a0a5 1b6f 20a4 e53f e5ce d3e2 ff37 f13f
00000590: c68d f6b1 cbb4 e73f babb a483 ac86 e13f
000005a0: 7c73 710a 3c2c f33f f007 513b 50c5 d4bf
000005b0: 4944 5123 5a15 fb3f edf7 b293 027c e13f
000005c0: 08b5 d231 72b7 d73f 4111 6ba1 994e e83f
000005d0: 7c5a 0d1b 54bc eb3f f6c9 c005 da92 ce3f
000005e0: ac99 9858 2c4c efbf 04b1 026e 4377 f0bf
000005f0: 8011 0dbf 64e8 f7bf 3f89 e379 916e f8bf
00000600: 53ae b07e 6582 ef3f 7165 6e12 64d0 f1bf
00000610: d62e 9a99 3a70 d13f ec98 d294 74f2 eebf
00000620: b859 7737 6720 f03f 5998 0365 3c29 f03f
00000630: de03 cfec 1e13 e6bf f184 fb75 800f f3bf
00000640: 3d13 9f40 c523 f03f b201 0515 c286 ce3f
00000650: 0f79 87b8 cd44 d3bf 41e1 f705 5603 eebf
00000660: 8b2c ae5c 5144 02c0 f2b9 ca95 b03f b93f
00000670: 5deb be1f d31e e43f e608 e182 c8a5 ee3f
00000680: b422 2708 26be bbbf 1539 7226 edd7 a4bf
00000690: 21dc 0b3f ebea e63f 5b89 5c9e 7262 8dbf
000006a0: 00e9 5eef 8b13 d1bf e12f a9d6 4e77 02c0
000006b0: e7ff 703c 7936 dfbf 09fb afd3 f273 b33f
000006c0: 93ea 9602 3e16 de3f 6a8c 274a c6ba aebf
000006d0: c952 240d 5de1 efbf bb8d c00d c1c2 f13f
000006e0: 896e 50b0 0847 e53f d014 fb06 697b e4bf
000006f0: 7ea8 cc83 af9f e83f ddcb f0e7 c51a d43f
00000700: 23f5 a405 9d50 f23f f4bd 5376 a487 a03f
00000710: 46b4 ebd4 79ef e43f e813 ea32 2620 93bf
00000720: 0a45 cf25 dd73 e53f 57d9 bfda 8bf4 f6bf
00000730: 5c07 3d0e 9f7d f33f c028 a029 c87e fbbf
00000740: 98e0 64ca 88f7 d5bf 2249 6306 a324 c23f
00000750: 6d81 ea28 8e1a d33f ffa6 cde0 8c2a f93f
00000760: 1203 d601 2022 de3f a277 7e2d dfe2 e23f
00000770: aaad 4ffc 9b45 aebf 1929 f26c f953 d33f
00000780: 1482 eb4d 7d4a e03f f4af bd15 f916 d4bf
00000790: 3d03 d418 4b9b fd3f 4208 d797 6c9b d03f
000007a0: 6ee9 1d81 ff7a e3bf 7e14 3ade b453 d93f
000007b0: 85d1 82bd db47 b7bf 1d60 2b99 2381 dbbf
000007c0: b244 dc2e 0ba5 e93f 27c0 5962 83a9 a8bf
000007d0: 5c7d d805 7c06 c9bf 4ae4 ea01 2ee6 f23f
000007e0: 90f0 d8a8 3df7 f5bf cb63 d8a3 dd72 ec3f
000007f0: 6c15 54f2 248c d33f 4291 9a34 d818 b33f

arr_3 f8 [128]
-0.8304177983220492 0.8916146214338844 0.974630336549693 0.17638792780304655 1.4503769691189006 -1.0004135827268006 1.7637898575043671 0.44268481817403876
0.1934979907322925 -0.4443815788839719 0.5393679209868304 -0.12105470737225421 -2.2666116767902147 -0.3305481192928712 1.9162381465989382 -0.9379315222410819
0.5705987761202407 -0.19470026560673828 -0.5559629630728001 0.025789793055922976 -0.571646984882603 1.8330552479166327 0.10512822568557531 0.1550347543164437
0.5142698344486406 -3.188314665654269 -1.6506714806274951 0.9775251109434394 0.17431136789389753 -1.000236147922465 -1.0597877223887309 -1.2127334387141386
0.3663508127498712 0.3472829514165522 0.3747942643133312 0.6772070665485456 -0.61422547895202 2.9087348874445915 -0.6596957994854846 -1.1330540003614633
-0.251390338987761 0.2977746921161791 1.6238762461172478 -1.2216667947367488 1.3314843729631516 -0.9930047994823534 1.0321284221646752 0.6338005217794365
1.5292755046331783 0.7180009756225554 -0.734544577169595 0.05099494756084193 -0.8779959996501212 -1.1176717817534436 0.38443056493735195 0.5823012662307465
-0.773292032259476 -2.8075478274137717 0.40704304105454475 0.8135564904064595 0.6405721509447267 1.3082263528275606 -0.8980617403511546 0.19201636059930877
0.9699264298107033 -2.2653556224541362 -0.20900294717990095 -0.7912215216686467 1.584904006924053 -0.694644000600419 -1.8978916056752246 -0.5170453191140714
-0.7173905847240242 -1.327109099929436 0.2086855737517415 0.18475138715814396 -0.23281475099878876 -0.09617219213270671 0.4021737256512134 0.14493638778088724
1.010597247265222 -0.7756890201149063 0.4175335664757604 0.9531324447560839 -0.08873239293599786 1.1922811236871063 0.13528703825253213 0.46521302402624076
-0.7840209330448017 -0.6295846741292055 1.597876755817349 0.3616094918736047 1.6270490228026218 -2.3591286045673687 -0.1884170544680924 -1.0692293661810295
0.3676318263858225 0.899772366514976 -0.1994541875018279 0.21988140354615265 0.04166655922032438 -0.40393938572826105 -0.04583051852393814 0.3378286228859114
-0.2945690406789672 -1.3125718343562296 -0.5469838218881552 1.157889650919741 0.34620512651425256 0.2308017716936921 0.10289509622880672 -0.44254675976154456
0.6462947016653294 0.6896908796942285 1.252542045445383 0.4646821107386723 0.09653452436787073 -1.129275862605573 -1.2127258634027398 2.482364717031969
-0.6957947314171681 -0.40504621940319496 -0.7860787240255066 1.8621159842293056 1.7792321095329242 -0.6883496338998796 -1.1808996346052025 0.16622105792824518
00000000: a1e7 b958 c892 eabf df34 f662 1b88 ec3f
00000010: f573 a5f5 2b30 ef3f b361 a92e e193 c63f
00000020: e6cb 137b be34 f73f a292 44ac b101 f0bf
00000030: d0f6 afb6 7b38 fc3f a390 1fb4 f254 dc3f
00000040: 62b9 04cb 8ac4 c83f a218 106f bf70 dcbf
00000050: 61cc a483 8042 e13f 88d0 30f9 70fd bebf
00000060: 955d 844d 0522 02c0 0480 874c b327 d5bf
00000070: 6cd7 af54 e9a8 fe3f d536 bdf7 8803 eebf
00000080: b25e 525d 5842 e23f 99d7 a634 f0eb c8bf
00000090: f7ea 05d7 72ca e1bf 3bb2 fbb6 a368 9a3f
000000a0: 6db0 1d9e ee4a e2bf 7f02 59bd 3154 fd3f
000000b0: e6bf 34f3 aee9 ba3f a229 c4c7 2dd8 c33f
000000c0: 01d7 0803 e674 e03f f3bc 921e ab81 09c0
000000d0: 84c2 9b7f 2669 fabf c1aa d0bd e247 ef3f
000000e0: b370 36bc d54f c63f 02aa 799e f700 f0bf
000000f0: 73ca 85f8 e3f4 f0bf 7faf a02d 5b67 f3bf
00000100: f9ea e7ad 4a72 d73f 7ab7 b245 e239 d63f
00000110: 9610 fd14 a1fc d73f 7146 6e27 aeab e53f
00000120: eb00 0f31 bca7 e3bf 5878 f2cb 1645 0740
00000130: cc28 835d 3a1c e5bf a878 423b fd20 f2bf
00000140: fce5 1e81 c716 d0bf 11ca 0d95 bd0e d33f
00000150: 7d32 9da8 65fb f93f 420e 207b f28b f3bf
00000160: 5830 d08e c24d f53f 2287 5100 b2c6 efbf
00000170: 8182 a717 9983 f03f 905f 2708 1848 e43f
00000180: 0993 6f97 e977 f83f 6270 992e ddf9 e63f
00000190: cdb8 0ca1 6381 e7bf 36f2 1180 021c aa3f
000001a0: e083 1011 8b18 ecbf 7fb0 64ce fbe1 f1bf
000001b0: 5e47 ffa7 829a d83f 9c2c dc43 36a2 e23f
000001c0: 7bfa 99ee cebe e8bf 8295 a5a2 db75 06c0
000001d0: a531 5941 fe0c da3f 27d1 f79e a708 ea3f
000001e0: b926 e12a 917f e43f 418e 92c1 7eee f43f
000001f0: 0e1b 93f9 ebbc ecbf ae15 89fa fd93 c83f
00000200: 2e04 f226 a309 ef3f 7d00 c2c4 721f 02c0
00000210: 8be0 73cb 9bc0 cabf 84a9 eecb af51 e9bf
00000220: 539c d04d c45b f93f fb1f 1e0e 863a e6bf
00000230: f6a5 9b96 c35d febf 5ea2 04a0 a28b e0bf
00000240: d322 7b19 ddf4 e6bf 1abc 66c0 d63b f5bf
00000250: a992 3479 35b6 ca3f fb0f def6 eea5 c73f
00000260: 9f78 c8ae dfcc cdbf 5b9e fea3 bd9e b8bf
00000270: 43e0 bedd 36bd d93f ec77 c28a 468d c23f
00000280: 77e8 e604 682b f03f 5a50 a8c7 71d2 e8bf
00000290: 73b8 3fb5 deb8 da3f 2b7c df9c 0f80 ee3f
000002a0: c684 c185 2ab7 b6bf f0fc 1d5f 9513 f33f
000002b0: 8e04 6fee 1551 c13f fe6b f7d8 0cc6 dd3f
000002c0: 8bd1 5911 b316 e9bf 0254 2ec2 8e25 e4bf
000002d0: ae62 9437 e790 f93f c24c 6123 9c24 d73f
000002e0: f9d0 5e8e 6408 fa3f 5466 5dd1 7edf 02c0
000002f0: 5b7c 79cf 0c1e c8bf acb9 7a40 901b f1bf
00000300: 54ef d2a3 4787 d73f d7d7 006b efca ec3f
00000310: e96f 2ffe b687 c9bf d659 9de6 1225 cc3f
00000320: f353 60ba 5155 a53f be3a d194 24da d9bf
00000330: 8d25 7004 1977 a7bf 3aa7 bcf1 fb9e d53f
00000340: 2556 081b 38da d2bf 2c5f e352 4b00 f5bf
00000350: 436c 4e37 e480 e1bf fb3b 714c b786 f23f
00000360: 3d85 058c 3928 d63f 1042 a496 e98a cd3f
00000370: 14b4 3841 5557 ba3f 421a 08a5 af52 dcbf
00000380: 9f61 e739 72ae e43f 9a5b 949b f211 e63f
00000390: 8ad8 2087 690a f43f 912a 2a09 5abd dd3f
000003a0: ab4c 1891 7cb6 b83f 9ad9 2091 8311 f2bf
000003b0: 0640 253c 5367 f3bf 3d2c 6308 e2db 0340
000003c0: 914e 0550 f343 e6bf 6421 6dfa 46ec d9bf
000003d0: b5ab 7891 8e27 e9bf c1fa 5921 3acb fd3f
000003e0: f3fd a616 bc77 fc3f a608 bacf f506 e6bf
000003f0: 99cd e703 f7e4 f2bf b5aa da4b bb46 c53f

arr_4 f8 [128, 2]
0.6165618250873399 3.1686605516360444 0.5527717908374603 0.559867021843918 0.2659315455116267 -0.21499650055579742 1.0524795344902236 -2.0700036452214303
-1.157141409442591 0.022426694189485934 0.2838258951986604 0.9941494590174489 -0.8290372609941267 -0.3791918857571439 0.9260840744871551 0.5220265434279362
0.697944909673431 -1.4666473690233581 0.45035977131214144 1.8462104099831709 -0.25513430009309634 1.4534403571129053 0.00011287111913129357 1.275230661665403
-1.3971856913843093 -0.8520692863265577 -0.2633538703692139 -0.19335321422020732 1.561988830847038 -0.43320687855253776 -0.25831162062839275 0.31388968621786084
-0.07848443962525392 -0.6212157404341117 -0.7480282357989678 1.3248169565193157 -0.27259683674782487 1.9566705494716274 0.5657806420425452 -0.2511454402218886
-0.032017953262482045 -0.09409117762076824 -0.46281468880058196 -0.10882145077143658 -0.5217269107586369 0.43567547463600664 2.077444384832537 -1.3888825703514036
-1.2525180058046554 0.1582744990116649 1.159760326603194 0.2507238972308341 0.05255537556034048 0.6211865679156353 1.411516634940914 0.9300893534228032
0.2556444966602957 1.0403849479352887 1.1600344186158862 0.2191329023741321 0.7591475696796528 1.0825765949867756 -0.5089982324235749 0.5652311349113195
-1.3644890259357199 2.1748730394941016 -0.01658248629680939 -0.6976300017447622 -1.00499353352311 0.07609417323660217 0.4635900022169734 -0.6530948288748681
0.7639059842205279 0.9362596651729993 0.4399098216409912 0.8144755943974 1.0602356619842108 -0.14223420428535333 0.19611851353241927 0.057632250517821226
0.5170890612531459 -0.7044760848423165 -1.3863953937915998 1.2316659869743025 -1.0085481930854134 0.09611512017639282 1.3060636128631322 -0.13946303068216792
0.0985422991494715 -0.13647533590077857 0.3379361785936907 -0.006919729268570569 -0.7418077238309366 -0.3044079416826702 -0.05388324592838791 1.4348112131422512
0.47789330725851364 -4.144923114164147 0.06819949904619835 2.4081820809956196 0.2318530859625818 -0.7286062183163836 2.4713111687954274 -0.8138875376579879
-1.9357661148938319 -1.2533327735650086 0.6947365319624433 -0.855182114025592 0.0007204406245709934 0.021459612893333653 0.45491936671061867 -1.4219904211393755
-0.09178645438369187 -0.2880010459001933 -1.2800390634201861 0.06477073227988306 0.8099353304282902 -0.8666212667135338 -0.16490132696577042 -2.0141195697583765
-0.772121898412149 3.4719423141285355 1.0185979852136489 1.9672096628617763 0.9649918017721758 0.1889213060130402 -1.8265884990273167 0.22432487150862365
1.1969323261824203 1.1133828553247647 -0.6646329608769901 -0.2224986169294231 -0.3912782163872889 -0.6564853748688816 -0.025058733289021064 1.057171387379101
0.4814219812451958 -0.3994151609529373 1.90504760773631 -0.032723878533871736 -2.051503237380408 1.2964260139503938 1.0490073884013222 -0.5786712819991019
1.5609612174075755 -0.6065174221452825 0.18240407885367468 -0.28632496625464604 -0.057399029246821456 -0.3662327831862081 1.0557293310957485 -0.16929932635852504
-0.734584953933694 0.4887722091117439 -0.5002946709817635 -1.3143831046062415 -0.13650733671275359 -0.5538796217781703 0.6923730626550357 -0.9097449857770296
0.7359947903025107 0.14101272536187826 -1.6609070408809057 -1.212269956732268 -0.6703082297062822 0.5825487301589156 -1.5157327422399836 2.1284520972895224
0.6620708648311645 -0.7451061330180987 1.0388750814503998 -2.0054764570179824 0.44703607945756474 -0.5071566146164517 0.9203208586448502 0.5432754576017874
0.917138310596831 -0.8990438413511344 -0.6688438996943367 -1.571119692864471 0.09248543334090928 -1.1372094198849876 0.3848412952104035 -1.9829106357576536
-1.736059919857131 1.153122051825494 0.8773508538670339 0.22247677330087565 -1.072967202616201 -0.6598233152758808 0.09188934935585201 -0.6642294855202908
0.22794381632134642 0.6974405457302715 -0.06223971242088332 0.36620205362198055 1.9129956735943272 -0.11099436557854683 0.16986136915489303 0.1423723189860306
0.8662864246927965 0.16805222027215458 -0.2564519677425391 -0.7051394972786763 1.0820435114101985 -0.2373602676641635 -0.7556760557084992 -0.6551987071277813
-1.5031452423410185 0.279362514404942 -0.5440329352485735 0.041477615951412417 1.013899133347116 0.49424316882053754 -0.5026717400958115 0.13086131506164686
0.19761129930053414 -0.11113192942873461 -1.1381221681472535 0.6191752775757452 0.789446237471853 -0.4982317265248941 -1.17221060226685 -1.2874111774351176
2.359259762682006 -0.2749838714125549 -1.166292680016477 0.47039796454575533 0.03904662104134692 -1.0105583930032345 -0.11460535408871429 0.41769887451171595
-0.3735382635396996 1.2320414251410505 0.12016130017243824 0.6289086332871839 1.0327903111092354 1.1808748718675288 1.4046192913538005 -1.4977855190737623
0.18355916558371163 -0.8053713176243669 -0.8692402080473837 0.424500961561626 -0.41721326426443334 1.2320618406123882 -0.930287976391917 1.7045814659084764
0.14541552760368032 -2.027042500921747 1.9602631313626457 0.06074204438069892 -0.45018439260215376 0.36941962295949515 -0.1997201082495259 -1.077486723753929
00000000: 52ca 56dd dfba e33f 9037 0bb4 6a59 0940
00000010: 388b 7977 4eb0 e13f a5b6 9d3e 6eea e13f
00000020: 789e bcbe 0505 d13f cf1f 525d 0185 cbbf
00000030: 5c84 c5c7 f4d6 f03f 599d 3612 5e8f 00c0
00000040: cf73 e6b5 a683 f2bf 3baa 67f8 05f7 963f
00000050: 02b7 6816 342a d23f f61c ba86 12d0 ef3f
00000060: 7b53 6426 7987 eabf 7412 0f0b ae44 d8bf
00000070: ad99 a811 7ba2 ed3f 5357 7502 71b4 e03f
00000080: 3da0 2e90 9055 e63f 2a84 4b3b 6377 f7bf
00000090: 580f 4eca b1d2 dc3f 7b99 46ed 138a fd3f
000000a0: 7436 bfd0 1e54 d0bf a9c8 07ad 4a41 f73f
000000b0: 6a25 b30f a796 1d3f 7c59 2b44 5867 f43f
000000c0: c4f4 2e62 df5a f6bf 235b d6ce 2644 ebbf
000000d0: e7b0 2031 cada d0bf ab7d d351 ccbf c8bf
000000e0: ed48 1300 e8fd f83f e343 f257 a9b9 dbbf
000000f0: 2aa5 b176 2d88 d0bf e0df 36c4 c416 d43f
00000100: 3c73 6f65 8e17 b4bf 1099 1dd5 ffe0 e3bf
00000110: 72b7 27e9 d8ef e7bf c9fc d643 7332 f53f
00000120: 20cc b400 3a72 d1bf 8d6e 30c7 854e ff3f
00000130: 2d0b 4901 e01a e23f e3b8 1253 c412 d0bf
00000140: 0360 4b3c a864 a0bf f02b b902 5c16 b8bf
00000150: 5471 2080 c19e ddbf e9a5 2afc b8db bbbf
00000160: bad8 64a2 fcb1 e0bf 7ec7 ce62 1be2 db3f
00000170: abea 6029 9b9e 0040 964c 1aee dc38 f6bf
00000180: 6b50 0952 500a f4bf 90df 85ba 5642 c43f
00000190: 0d58 1fd8 608e f23f 7ca7 bb3e dc0b d03f
000001a0: 3b75 85c6 89e8 aa3f 3930 3da7 c2e0 e33f
000001b0: 954c 8d77 9295 f63f 14e1 69bf 4ac3 ed3f
000001c0: 07bc 23bc 7a5c d03f a71f eaaf 6aa5 f03f
000001d0: 9f08 2340 808f f23f a554 9604 8c0c cc3f
000001e0: 6c95 13d8 ef4a e83f bf21 eed5 3b52 f13f
000001f0: da64 3fa9 b649 e0bf aa00 e49a 5f16 e23f
00000200: 2751 e271 f2d4 f5bf 5fa2 0cd6 2366 0140
00000210: c81c 53d1 fffa 90bf 3b78 4627 fc52 e6bf
00000220: 94c5 7219 7414 f0bf 38a5 7761 e87a b33f
00000230: e390 9166 75ab dd3f 6c89 6620 27e6 e4bf
00000240: 7b44 6ef6 ea71 e83f 126c 4fd4 d6f5 ed3f
00000250: b5c8 4886 7b27 dc3f bc76 2a1f 2f10 ea3f
00000260: cb66 64ab b9f6 f03f 429b e3fb ba34 c2bf
00000270: 1885 e154 691a c93f d87c 566e f981 ad3f
00000280: 8773 e65b fe8b e03f a5c7 266e 118b e6bf
00000290: 358f baef ac2e f6bf 2f67 da64 e7b4 f33f
000002a0: 2fde 1b6e 0323 f0bf 1208 cf21 009b b83f
000002b0: 56e2 7bf5 a2e5 f43f 5cf6 e3b1 ecd9 c1bf
000002c0: fd9f 1e70 113a b93f 4dc5 3318 0678 c1bf
000002d0: cb7c cc10 bfa0 d53f 21af 7dae dc57 7cbf
000002e0: 34c5 388d e3bc e7bf 15dd 8a72 6b7b d3bf
000002f0: 1327 21b6 9596 abbf b414 469a fcf4 f63f
00000300: 20c4 69cf cd95 de3f f413 8fb9 6694 10c0
00000310: 16cb 01ba 8575 b13f e983 85f7 f443 0340
00000320: b8cd d7a6 5cad cd3f 6798 eafc bd50 e7bf
00000330: 28ba 41ca 3ec5 0340 ea9d 9be0 5d0b eabf
00000340: a6c8 c2e3 e5f8 febf 8b77 97aa a60d f4bf
00000350: 55af 831b 483b e63f 62a6 7be1 a65d ebbf
00000360: f243 eb75 7e9b 473f 222b 3f3e 82f9 953f
00000370: 71b4 951e 661d dd3f 5a4d 2007 79c0 f6bf
00000380: 5c33 cb2b 517f b7bf 5fba 56f0 9b6e d2bf
00000390: eddf af3d 0a7b f4bf 384c e190 d094 b03f
000003a0: 0f10 827f fdea e93f e4af d185 5cbb ebbf
000003b0: 4047 3197 7c1b c5bf 3cc4 92b8 ea1c 00c0
000003c0: 6494 c6fb 38b5 e8bf b53e 26b1 89c6 0b40
000003d0: cf39 a466 2d4c f03f 3fdd e5d6 b079 ff3f
000003e0: a5a0 b07c 36e1 ee3f 9afb 6bc7 922e c83f
000003f0: 2127 a9dc b439 fdbf 5f8b 6769 adb6 cc3f
00000400: c1a8 c782 a226 f33f 5dc0 788a 6ad0 f13f
00000410: 24ee d957 ac44 e5bf 45fd 8ead d57a ccbf
00000420: ca51 c1c9 b30a d9bf 17a7 eb9d ed01 e5bf
00000430: fa76 d21f ffa8 99bf 86f6 708b 2cea f03f
00000440: 5783 4124 9ecf de3f bc71 749b 0490 d9bf
00000450: cdce 4833 137b fe3f c4d7 3328 2fc1 a0bf
00000460: ee7e 8187 7a69 00c0 fb9b 3934 29be f43f
00000470: 0423 a7f8 bbc8 f03f d541 eaa2 7984 e2bf
00000480: 2970 3178 b2f9 f83f d02e 9239 9768 e3bf
00000490: 5fb1 aa50 0459 c73f 77e3 85f3 2553 d2bf
000004a0: aade dfd2 6763 adbf 2a80 a0a0 5b70 d7bf
000004b0: 44bf 6770 44e4 f03f cbeb f8ae 99ab c5bf
000004c0: 9bec 284e b881 e7bf 0008 553b 0b48 df3f
000004d0: 265a 47f8 6902 e0bf 192e 0b94 b607 f5bf
000004e0: ff33 6c89 1279 c1bf aea8 aec1 61b9 e1bf
000004f0: f882 978d eb27 e63f 2f98 3384 a11c edbf
00000500: 6b05 4cf2 448d e73f 68e2 df79 b40c c23f
00000510: 5879 e442 1393 fabf 316a a12e 7565 f3bf
00000520: 1b80 9a3e 2a73 e5bf e07b 0b3c 3da4 e23f
00000530: a25a d6f9 7040 f8bf 5ab0 a7e4 1107 0140
00000540: 7db2 023d af2f e53f 8993 2bd1 e8d7 e7bf
00000550: 4257 377a 3b9f f03f 4c52 9e3d 370b 00c0
00000560: 40bf 5937 3d9c dc3f 9c49 3782 a03a e0bf
00000570: c599 b6ba 4473 ed3f c3cf 6336 8362 e13f
00000580: ad81 3d71 3259 ed3f 28bf 0897 f7c4 ecbf
00000590: f81e 6a52 2b67 e5bf 8045 2f67 4e23 f9bf
000005a0: 5e3b 8e17 20ad b73f 18bf 3181 0232 f2bf
000005b0: c10d 4562 3da1 d83f da83 b780 00ba ffbf
000005c0: 94ec 3ac4 e6c6 fbbf cd30 ce1b 3073 f23f
000005d0: 3140 0f19 4213 ec3f ef32 b970 1e7a cc3f
000005e0: ceac 4ea8 df2a f1bf 4cf1 07c9 451d e5bf
000005f0: c787 5576 0f86 b73f 5c27 ab31 5e41 e5bf
00000600: 847a 3652 432d cd3f ec1b dad5 6e51 e63f
00000610: 1e64 b832 e2dd afbf 5834 02bd da6f d73f
00000620: 4fa2 f759 a19b fe3f 823b 3372 206a bcbf
00000630: d4e0 af70 04be c53f 8649 f392 4139 c23f
00000640: 4bc7 e04e 9eb8 eb3f 5f67 0b33 bc82 c53f
00000650: 46bd 9c83 b569 d0bf e3c0 fdb4 8090 e6bf
00000660: 61b1 65db 0c50 f13f bf62 7e3d d261 cebf
00000670: c66c 348d 7f2e e8bf 85d9 6f47 63f7 e4bf
00000680: f9e1 8f06 e20c f8bf 563e c64f 13e1 d13f
00000690: 42dd 1ac2 b768 e1bf b002 0ed8 8d3c a53f
000006a0: 9cb2 324c ee38 f03f 68c2 9619 aea1 df3f
000006b0: afb7 8a0b e315 e0bf 6f2b 4046 10c0 c03f
000006c0: 296e e8b9 534b c93f 5713 7062 2473 bcbf
000006d0: 98b8 3097 bf35 f2bf dbbe f5ab 48d0 e33f
000006e0: 1b8a 7cc1 2443 e93f 2042 d052 07e3 dfbf
000006f0: 5a2b 8ce7 5fc1 f2bf 3f6b 7976 3c99 f4bf
00000700: 4ce7 1b95 c3df 0240 bb3d a9f3 5599 d1bf
00000710: 67c2 6383 22a9 f2bf 1e0e 7510 001b de3f
00000720: dfa5 c830 ebfd a33f f65a 0a47 3f2b f0bf
00000730: 57ed c1c7 c656 bdbf 1ea5 660f 94bb da3f
00000740: f549 6d08 0de8 d7bf cac4 c411 71b6 f33f
00000750: 3347 7c16 e4c2 be3f 137f 84ff 0420 e43f
00000760: f36f 1d22 4f86 f03f 796d b50c dde4 f23f
00000770: d21f fb13 5279 f63f d181 cdf2 edf6 f7bf
00000780: 5713 88e2 dd7e c73f a0a8 ca11 9ac5 e9bf
00000790: e3d0 3dd7 d0d0 ebbf 70c6 c114 062b db3f
000007a0: 0948 5e43 9fb3 dabf bf46 017a 86b6 f33f
000007b0: c4e3 4e4a ebc4 edbf 441d 1737 f745 fb3f
000007c0: d6b6 b1db f99c c23f d57c 080f 6237 00c0
000007d0: 251d 8cdf 3c5d ff3f b9ed 36cc 9419 af3f
000007e0: 0356 d932 d2cf dcbf ce25 c733 92a4 d73f
000007f0: 8084 a4b2 6d90 c9bf 635b 06b8 623d f1bf

arr_5 f8 [2]
-0.5353039193838764 -1.3927058377140942
00000000: 7094 65af 3521 e1bf 95e2 9eea 8548 f6bf
